backend/backend/luma_model.pth (torch, 89721 bytes, 5 tensors)

net.0.weight f4 [128, 103]
00000000: 8cd5 6dbd cd95 f9bc f9ca 1d3d 0b34 1d3d
00000010: 2261 1fbd 00e4 52bc 47d0 b6bd 9641 773d
00000020: b3cc d93c 5261 103d 7681 d6bc 1bc9 933d
00000030: c8a2 8f3d 62b2 c03d 9858 823c f578 583d
00000040: 62c7 893d 91ee 5cbd 9722 e1bc cf59 893d
00000050: 37da ab3c 0b0b a9bc 8bb8 003c bfea e83c
00000060: 2513 af3d 6621 6e3c 0056 5b3c 475e 23bc
00000070: aa33 2a3a 195f 6d3c 44fd 6d3d 9066 5a3d
00000080: 7094 e5bc 2fbc 8d3d c91d 48bd 9ea3 393d
00000090: 2c1d 993d f10e 5abd 6a7f 99bd 9eb4 8b3d
000000a0: 0a34 4a3b b84c 82b8 ba2a 8d3d 85e2 5ebd
000000b0: 604a 8e3d b661 76bd f530 ba3d 6582 a9bd
000000c0: a80c b9bc 95a1 343b 0606 2f3d cd0b 0f3d
000000d0: 4092 e83c 9c90 c5bd 1e97 123d 42f6 b63d
000000e0: cfee a03c dbb4 c7bd 9fe1 103d ebd0 50bd
000000f0: d5b9 99bd 63e0 053d 47a5 b23d 115b 04bc
00000100: 27ee 5d3d 8ae5 793d ede6 003d c07a ba3c
00000110: c1a6 d33c 6ce0 113c fa0c 343c 0b54 6a3d
00000120: af91 a23d e701 8e3d adc6 debc d2b1 57bd
00000130: d020 733d dc5a 35bd 6787 4c3d 1a4d 15bd
00000140: dce7 51bd 1834 c3bd c45f 753c 53db ccbc
00000150: eb03 4abd 8aef 69bd 4487 edbc 0a48 a6bc
00000160: d0c8 23bd 6a41 39bd 91d5 c33c b8a2 8e3c
00000170: b022 9abc 5929 55bc c44f 82bd e764 313d
00000180: 41a5 41bd dbb3 243c d65e d8bc 0dc6 1fbd
00000190: 5e3a 933d 97d4 28bd 92ed 9f3d 5fcd 89bd
000001a0: 9a1d 693d 7889 2e3c 8d5e 833d 0940 89bd
000001b0: 3eb8 8dbd 0640 003d d32c 063d 5376 8c3d
000001c0: aeac 40bd ae0e 8ebd 9ab0 6e3c e045 bb3d
000001d0: 4edf a13d 33fe 9ebc b04b d23c 2662 de3c
000001e0: 6e49 56bd c804 913d bea4 833d ec1c 91bd
000001f0: f3dd 2dbd e1eb e93c 770c b9bc afa6 36bd
00000200: eadf 143d da21 83bd d504 173d c1c5 29bd
00000210: 6146 103d 7137 103d 8fa1 d63d 8734 cb3b
00000220: 2550 173d 2c1e 47bd fadb a33d 91c6 863d
00000230: eb74 b3bc 6db0 36bc 014c b8bd edd4 b73d
00000240: 3347 b13d 415b 07bd 8d7c 3b3c f704 65bd
00000250: 912a 693c 5d39 3dbd fe5c 0d3d 33ae 3abd
00000260: 163c 343d 9c59 bc3d 859a 903c 8942 c9bc
00000270: 9afe 0bbd 7cf1 533d 95c5 84bd edc7 753d
00000280: 10fb a0bd e020 73bd 0e5a f1bd 1fac 3c3d
00000290: 4b74 a1bd 350a 0d3d bb86 c3bc abd8 40bc
000002a0: 34be a43d 1b54 673d e386 d2bd e02a 22bd
000002b0: 3be5 903d 0fe0 8ebb e7b0 26bd fc58 363d
000002c0: ce6b 7dbd 1701 0b3d edf2 b6bd a13c 413c
000002d0: 4278 dc3c 0755 aabc f56a 9abd 3641 dc3c
000002e0: 6c6a bd3d 25cc b1bc 7be5 353d 2c2e 72bd
000002f0: dc92 a83d c9b4 b33d bf1a 98bd 8818 72bc
00000300: b6f5 d2ba 672f 6abd 0035 1c3d f8f3 74bd
00000310: 7567 6fbd 48d0 dd3c 1d27 bebd ef4c 1f3d
00000320: de87 a9bd cfad 81bd b6fa 0abd 929a ea3d
00000330: 0f11 2fbd 6eeb 69bc 20ce 433d 3acd c0bc
00000340: ffc7 d8bc 3576 513d 8ec7 a2bd 5b13 c33c
00000350: 903a 463a fb46 9f3d 5d4a c73d 6e02 73bd
00000360: 4ad7 be3d 3b4b 233d 0dd3 073d 92e6 bdb9
00000370: 60da 2fbd 7b0e d3bd dd23 08bb 5417 013d
00000380: 9e72 983d 249d f2bb 7d69 adbd c8c5 943d
00000390: 8cb4 ecbb da58 3ebd ca47 a7bd ee4d 8abd
000003a0: 484b 083d 6c7e 0e3d 26f8 80bc 613d 6f3d
000003b0: c06d 393d 8cef a7bd b7e8 e43a 371e 10bd
000003c0: 42eb b3bd bdae 0f3c 1b96 98bd 4124 bbbc
000003d0: 0add 42bd 99ab 3f3d 8eaa ba3c 2d43 5bbd
000003e0: ecc4 493d 91fd bf3d 544a b7bd d79e a4bd
000003f0: 4f1e 95bd b078 733d 1a45 83bc 5360 74bc
-0.058064982 -0.030466938 0.038523648 0.03837971 -0.038910992 -0.012871742 -0.089264445 0.060365282
0.026586866 0.035249062 -0.026184779 0.07216092 0.0701347 0.09409024 0.015911385 0.05284973
0.067274824 -0.053938452 -0.027482314 0.06706583 0.020978076 -0.020635149 0.0078564985 0.028432248
0.085485734 0.01453433 0.013387203 -0.009971208 0.0006492684 0.014488005 0.05810286 0.053320467
-0.028024882 0.06920659 -0.04885653 0.045322053 0.07476267 -0.053236905 -0.074950054 0.06821559
0.0030853772 -6.213173e-05 0.06892915 -0.054415245 0.0694778 -0.06015178 0.09091369 -0.08276824
-0.022589043 0.002756213 0.042730354 0.034923363 0.02839005 -0.09646723 0.035788648 0.08933689
0.019645123 -0.09751292 0.03537142 -0.05098049 -0.07506148 0.032684695 0.087229304 -0.008078353
0.054182198 0.06100992 0.031470228 0.02276361 0.02583635 0.008903604 0.010989422 0.057209056
0.07937943 0.069339566 -0.027194345 -0.052659817 0.059357464 -0.044276103 0.049933817 -0.036450483
-0.05124651 -0.095314205 0.014976446 -0.025006926 -0.049320143 -0.057113208 -0.028995164 -0.020298023
-0.03998643 -0.0452284 0.023905547 0.017411575 -0.018815368 -0.013010346 -0.0636287 0.04330912
-0.04727674 0.0100526465 -0.026412409 -0.039007235 0.07188867 -0.041218366 0.07808985 -0.067286246
0.056912996 0.010652892 0.064145185 -0.06701667 -0.06919907 0.031311058 0.03275759 0.06858506
-0.04703968 -0.06936394 0.014568472 0.09144187 0.0790392 -0.019408321 0.025670856 0.02714641
-0.05231612 0.0708099 0.064279065 -0.070855945 -0.042447995 0.028554859 -0.022588952 -0.044592556
0.036346354 -0.06402941 0.036869843 -0.04144836 0.03522337 0.035209123 0.104800336 0.00620133
0.036941666 -0.04861276 0.080009416 0.06580842 -0.021906337 -0.011150462 -0.089988716 0.08976159
0.08656158 -0.03304601 0.011443269 -0.055912938 0.01423134 -0.046197284 0.034512512 -0.045576286
0.044002615 0.09196779 0.017651806 -0.02456786 -0.034178354 0.05174397 -0.06482998 0.060005117
-0.07860386 -0.059357524 -0.11784755 0.046062585 -0.07883509 0.034433562 -0.023867955 -0.011770408
0.08044091 0.056476694 -0.10279634 -0.03959167 0.07074972 -0.004360206 -0.04069605 0.044518456
-0.06187039 0.033936586 -0.08933053 0.01179424 0.026912812 -0.020792497 -0.07539932 0.026886564
0.09248814 -0.021703789 0.044408303 -0.059126064 0.08231136 0.087747164 -0.074269764 -0.0147763565
-0.0016094956 -0.057174113 0.038136482 -0.05980298 -0.058448274 0.027076855 -0.09284804 0.03889173
-0.08277868 -0.063319795 -0.033930503 0.11455263 -0.042740878 -0.014277322 0.047803998 -0.02353536
-0.026462553 0.05113812 -0.07948218 0.02381294 0.0007561827 0.0777721 0.097309805 -0.05932849
0.09318407 0.039866667 0.033160258 -0.00036220677 -0.042932868 -0.10305496 -0.002077333 0.031516388
0.074437365 -0.0074039865 -0.08467386 0.07264286 -0.0072236713 -0.046471454 -0.081679896 -0.06753145
0.03327492 0.034788534 -0.015743326 0.058408145 0.04527068 -0.08199987 0.0017464374 -0.035185065
-0.08785106 0.008769688 -0.07450505 -0.022844436 -0.04757408 0.046794508 0.022786405 -0.05353086
0.049260065 0.09374536 -0.08949724 -0.08038109 -0.072811715 0.05944127 -0.016024161 -0.014915544

net.0.bias f4 [128]
00000000: 73da b33c 70ab 293d d49b 023d 16a7 8c3d
00000010: 0830 6cbb d39e 4a3d 3eec 0f3e 3308 71bd
00000020: 1c81 8cbc b0b5 85bc e42f 9ebd 149a 89bd
00000030: 1093 62bd 8c13 193d 2d17 36bc f3d0 b9bd
00000040: 5134 3cbd 7c2e 6bbc dbd6 f6bc 45c4 93bc
00000050: b259 cd3b de4b bd3d aeca 8fbd 07bf b7bd
00000060: 5da3 98bd a9c1 68bd b196 eb3d c4c1 a3bd
00000070: 9347 8bbd 99d2 af3c 4beb 0fbd 25c5 aebd
00000080: 4e43 b43d 5439 c3bd f326 ebbb 3a88 a33d
00000090: c628 a03d 6dd9 aa3c 3d6b d23b 619c d23d
000000a0: 7439 6fbd afb9 12bd 963f 1b3d e057 fe3d
000000b0: 43cc adbd 533b cb3d 05ca f23b 27a2 25bc
000000c0: 23cf 603d 1166 d83c 2c6e 513c b6bd 5a3d
000000d0: 77a4 babd 2dd1 89bd 4cdd 793d 83c0 f43c
000000e0: 9c4e 9ebd c474 d53a 3500 d63d 0f36 a1bd
000000f0: 333d c2bc 777e aa3d 0a12 403d 9d14 073d
00000100: 307f 5d3d 0806 9d3d cec2 6f3d 4988 bc3d
00000110: 8059 87bd 6df4 443d ee9f 3ebd 038b 9cbb
00000120: 3b5d 49bd a57d 583c 7ba8 a33d 3421 61bd
00000130: c683 483d 3897 a9bd 73b1 2e3d 6924 533d
00000140: 686a 6c3d a79c 883a f39f e0bc f8a8 e73c
00000150: 7d1c 89bd 76cd 8ebd 6730 86bd 082b c43c
00000160: c207 c13c 9c6c 3a3b 4cda 723b b865 8b3c
00000170: 6ac7 573d b32b cd3c a91d f13c 6290 a8bd
00000180: e6e0 cebd aacf 0ebd 3289 483d 940a 0d3d
00000190: fd6b 1b3d 4a53 ce3d 741f 6d3d 10b8 04bd
000001a0: f1a8 42bd aebc 7ebd 376d 3ebd d7f1 053c
000001b0: 7e2d c23d 47c8 80bd 9409 d5bd 5f72 e03d
000001c0: b434 7ebc 9d14 85bd f6c1 c13d 4752 80bd
000001d0: 84f2 813d 39e7 473d a8e8 5b3d b2f4 86bd
000001e0: 5e5e b0bd 6c1c ab3d 140f c13d f10a 08bb
000001f0: 46d6 7b3d 9c36 cb3d f4b2 f83c d263 1a3d
0.02195475 0.04142326 0.03188689 0.068678066 -0.003603937 0.049467873 0.14054963 -0.05884571
-0.017151408 -0.016321987 -0.07723978 -0.06718841 -0.05531603 0.037372157 -0.011113924 -0.09073057
-0.04594833 -0.014354344 -0.030131748 -0.018037925 0.006266796 0.09242986 -0.0702108 -0.089719824
-0.07453034 -0.056825314 0.115033515 -0.07995942 -0.06800761 0.021462725 -0.035136502 -0.08533696
0.088019 -0.09532419 -0.007176274 0.079849675 0.07820277 0.02085563 0.006421475 0.10283733
-0.0584044 -0.035821613 0.037902437 0.124191046 -0.084862255 0.099234246 0.0074093365 -0.010109461
0.05488504 0.026415857 0.012782615 0.05340358 -0.091134004 -0.0672935 0.06100206 0.029876953
-0.07729837 0.0016285409 0.10449258 -0.07871639 -0.023710823 0.083249025 0.046892203 0.032978643
0.054076374 0.07667166 0.05853539 0.09205682 -0.06608868 0.048084665 -0.04653924 -0.0047773137
-0.049161177 0.01321355 0.079911195 -0.054963306 0.048953794 -0.08280796 0.042649698 0.051548395
0.057718664 0.0010422663 -0.02742002 0.028278813 -0.06694887 -0.06972782 -0.06552201 0.0239463
0.02356327 0.0028446084 0.0037056385 0.017016277 0.05268041 0.025045251 0.029433088 -0.08230664
-0.1010149 -0.034866013 0.048958965 0.034433916 0.037944783 0.1007448 0.057891324 -0.0324021
-0.047524396 -0.062191658 -0.046490874 0.008175335 0.09481333 -0.062882 -0.104022175 0.109593146
-0.015515495 -0.06498072 0.09460823 -0.06265693 0.06345084 0.048804495 0.053688675 -0.06589641
-0.08611749 0.083550304 0.09426704 -0.0020758475 0.061483644 0.09922525 0.030358769 0.037692852

net.3.weight f4 [64, 128]
00000000: 8324 2ebd 0786 a2bc 1acc 1b3d 04db aebd
00000010: 4802 8c3c b4bd 0a3d 41e4 933d 7fa9 273d
00000020: 6739 36bd f69e 70bd cfe7 a4bc 1867 723d
00000030: d319 9cbd 76c7 4a3c 895f e6ba 699b 373c
00000040: d09c f9bc 0edf a5b9 972f b03d 9a85 ad3d
00000050: 30c4 183d 5600 c73c 24a8 d6bd 2204 49bc
00000060: 2ae9 9b3d 5497 af3d 4626 643d 2be2 a03d
00000070: 7e02 173c 0600 54bb 7a2a bf3d 5dfe 973d
00000080: b267 963d 6c2e 793d 7668 003d eace 273c
00000090: 7d60 9c3d 6c3c 47bd 542e a13d 6dec b5bd
000000a0: a232 53bd 33e3 11bd 3e97 8e3d a95f a03d
000000b0: ab4e cf3c 3856 3b3d 1089 933d 1948 74bd
000000c0: 153e 0e3d 22bd 41bd 4835 a23d e235 b93d
000000d0: e522 8ebd 170d 96bd cb64 253d b52f 273c
000000e0: ee56 8abc 4a5d 2b3d 2f3e ed3c 996e 183d
000000f0: e3c3 7d3d 5f3a 1c3d 631d 64bd aa4c 753d
00000100: 79cb 113b e088 73bd 4b85 f63c bda7 d2bd
00000110: bcd3 ad3d 00cd 8abd 9de6 6f3c 056f 31bc
00000120: ff6a a23c c458 90bd c67b 21bd 988a 543d
00000130: eacd 3abc 447d 38bc c91b 65bd 75a4 943d
00000140: aaab 12bd 4b44 fbbc 0c5c 9cbd 4406 a6bd
00000150: de47 6e3d 03d0 9bbd 0a8b 6f3d c2f4 bf3c
00000160: 46ac 22bd 0007 c03b 27c4 ae3d 7ec1 773d
00000170: cf00 e9bc 4c0c d7bd fe62 9d3d 926d f3bd
00000180: 6e59 2bbd a9b9 d4bd c41a 8cbc e491 9c3d
00000190: 5a9a 98bd 0770 963d 8482 fb3c e55f 853d
000001a0: e003 49bd 0bd7 27bd 8fee 64bd 64df 2a3b
000001b0: dfe8 85bd 2458 333c a0ec 023d 2e43 93bd
000001c0: 1f69 0b3c 1550 4c3d b7bd 753d a2bc 9cbd
000001d0: 0d40 e53c fcd6 273d cf5f 5e3d f8f1 6abd
000001e0: 465c 3bbd ba90 6dbc ca16 3ebd 963f 5fbd
000001f0: b5bf 7bbd 03be aabd 85a8 85bc 4718 943d
00000200: 8b03 2abd 7925 bc3d 58e2 c23d bfde 073d
00000210: 62a1 aebd 239a f5bc 70d1 8f3c 7d9a f5bc
00000220: abc2 cb3d 9b6f 2dbd b978 483d 02de 09bd
00000230: 726b 81bd c50f 3ebb 2c12 883d ec57 f3bc
00000240: 8d5a 9b3d 9f37 adbd 59b3 65bc 0826 4bbb
00000250: 0eff 463d 8c50 c93c ff0b a9bd ad06 f0bc
00000260: 40c1 fc3d 66ee b0bd 9d2a acbd 6ff4 58bd
00000270: 73ac b83b 0efa b13d 6107 e4bc 6045 a13d
00000280: 93df d63d 7b44 2d3c b684 debb 60f6 903c
00000290: 51f3 40bd 4634 373d d94b cf3c e1d1 61bd
000002a0: 23d3 43bd 94dc ac3d acbb 513d b0cd 2c3d
000002b0: 24a8 833d d407 bcbd 2242 913d 5374 533d
000002c0: afeb abbb 5f78 24bd 2100 ebbc e714 953c
000002d0: 5c01 3dbd 6ba5 abbc 6452 0ebd 7461 043d
000002e0: d586 b03d 417d 88bd 7088 533b 0fbe 25bd
000002f0: ff42 873d 2023 3cbd 6f3c c63d 164a 45bc
00000300: 0b38 983d b716 5f3c 6771 2f3d 728a e43c
00000310: 787f 8ebc 76cc 8cbd 6b65 2dbd bef0 2bbd
00000320: 27d7 6ebd e2d9 e03c 6a26 39bb 4aaa d3bc
00000330: 026e 9fbb ba49 1c3d 0b52 bbbd 6c81 b0bd
00000340: ae91 b2ba 87e6 16bd 2cb5 3f3d 4c74 123d
00000350: 902d 113d 3043 9d3d ff11 2b3d f39f 06bd
00000360: cc8a a13c d292 62bd 1e65 9a3c e3fa 86bc
00000370: 1a40 c73c 689d ab3d f3bc 583d fdbb 02bc
00000380: b1e5 babd eeab 7ebd f0c3 4e3d 93d7 a73d
00000390: 96ea e63c 9d3b 733b 4a0a 883d 5b64 1c3d
000003a0: ee42 52bd e03a a33d 1583 923c 6a02 b63c
000003b0: dd65 9c3d ae30 c23c 5c20 49bd 3164 b93d
000003c0: 8c1d a03d 3fea 05bd d667 f2ba 975b a8bd
000003d0: a1cd b5bc d88d 603d 7d25 973d db1d 2bbd
000003e0: af69 2fbd 9ba0 bcbc 05e3 053d e59c d43d
000003f0: 244c 86bd f63a 8c3d ff68 263d 9658 263d
-0.04251529 -0.0198393 0.038036443 -0.08537868 0.017090932 0.03387232 0.0722127 0.04093313
-0.044488337 -0.058745347 -0.020130066 0.05918035 -0.07622113 0.012376657 -0.0017576079 0.011206486
-0.030470282 -0.0003163744 0.08602827 0.08472748 0.037296474 0.024292152 -0.10481289 -0.012269052
0.07612832 0.085737854 0.055700563 0.07855638 0.009216903 -0.0032348647 0.09334274 0.07421563
0.07343997 0.060835287 0.03134962 0.010242203 0.07635591 -0.048641607 0.078701645 -0.08882985
-0.05156196 -0.035617065 0.06962441 0.07830746 0.025306066 0.04573652 0.07203877 -0.05963907
0.034727175 -0.04729951 0.07920319 0.090434805 -0.06940249 -0.073267154 0.040379327 0.010204245
-0.016887154 0.041837014 0.028960316 0.03721485 0.06195439 0.038141605 -0.055692088 0.059887566
0.0022246523 -0.059456706 0.030092856 -0.102859 0.08487651 -0.06777382 0.014642385 -0.010829692
0.01982641 -0.07048181 -0.03942468 0.051889986 -0.011401633 -0.011260334 -0.0559347 0.0725793
-0.035808243 -0.030672213 -0.07634744 -0.08106664 0.058174007 -0.076080345 0.058482207 0.02343214
-0.039715074 0.0058602095 0.08533507 0.060487263 -0.028442768 -0.10500392 0.07684897 -0.11886133
-0.041833334 -0.10386974 -0.017102607 0.07645014 -0.07451315 0.07345586 0.030701883 0.06512431
-0.04907596 -0.040976565 -0.05589157 0.0026073093 -0.06538557 0.010946307 0.031963944 -0.07190548
0.00850895 0.04988106 0.05999538 -0.07653166 0.027984643 0.04097651 0.05429059 -0.057359666
-0.045742296 -0.0144998375 -0.046408452 -0.054504 -0.061462123 -0.08337023 -0.016315708 0.07231193
-0.041507285 0.09186835 0.09515828 0.03317141 -0.08526875 -0.029980725 0.017555922 -0.029980892
0.09949239 -0.042342763 0.048943255 -0.03365899 -0.06319322 -0.0029001099 0.06644091 -0.02970501
0.075856306 -0.084578745 -0.014019811 -0.003099801 0.048583083 0.02457454 -0.08254241 -0.029300058
0.12341547 -0.08639221 -0.08406565 -0.052967485 0.005635792 0.08690272 -0.02783555 0.0787456
0.10491862 0.010575409 -0.0067907227 0.017695606 -0.047107045 0.044727586 0.025304722 -0.055131797
-0.047808778 0.084405094 0.05120437 0.042188346 0.06428555 -0.091811806 0.07092692 0.051624607
-0.0052466015 -0.040153857 -0.028686585 0.018198444 -0.046143875 -0.0209529 -0.034746543 0.0323195
0.08619467 -0.06664515 0.0032277368 -0.040464457 0.06604575 -0.045931935 0.096794955 -0.012041589
0.07432564 0.0136162555 0.04283276 0.027898047 -0.017394766 -0.06874935 -0.042333048 -0.041977637
-0.058310654 0.027447645 -0.0028251656 -0.025838036 -0.004865409 0.03815625 -0.09146508 -0.08618435
-0.0013623738 -0.03684094 0.04680364 0.03575544 0.035443842 0.076788306 0.04176521 -0.032867383
0.019719504 -0.0553158 0.018847045 -0.016477054 0.024322558 0.08379632 0.05291457 -0.00797939
-0.091258414 -0.062175684 0.05047983 0.081954144 0.028188031 0.003711439 0.066425875 0.038181644
-0.05133336 0.07970214 0.01788477 0.022217948 0.076366164 0.023704853 -0.049103126 0.09052313
0.078181356 -0.032694098 -0.001849408 -0.082205944 -0.022192778 0.054822773 0.07380197 -0.04177652
-0.042825397 -0.023025801 0.032687206 0.10381488 -0.065574914 0.068471834 0.040627476 0.040611826

net.3.bias f4 [64]
00000000: ae87 543c 677d 23bc 6038 1c3d 7b4d 4a3d
00000010: db00 653d c8cf 08bd 220e 963d ad1b cb3c
00000020: deb6 64bc ac17 38b9 0142 293d bcbe 8dbd
00000030: 9a64 003c 8b78 933d ef9c a3bc 27fe cc3d
00000040: 3bf3 363d 6bc7 34bc e455 98bd f0d8 bc3d
00000050: 01b0 a23d 479e 54bd bb14 623d 982e 183c
00000060: 0f76 b1bd 05bb b13d 4f8f 433d 0fae 4dbd
00000070: b6fb 87bd 0af3 c9bd 6abb c03c ef91 19bd
00000080: 5a83 c23d 431e ffbc ed50 933c 7d92 00bd
00000090: b064 dbbc e006 12bc 35f4 8d3d 7979 bb3d
000000a0: 333b 7abc 45e4 a6bd 3526 eb3c e967 c53d
000000b0: f74d a03d 9d52 01bd d5b6 8ebd e6e5 883d
000000c0: e085 863d e71f 063d 0074 733d a1c2 b7ba
000000d0: 08c6 703d a191 b6bd 9851 4e3d 81aa ee3d
000000e0: d463 8d3c 8bfc 43bd e711 27bd 08d1 81bd
000000f0: a830 e0bc 01b6 be3d eed8 903d 5985 b43d
0.012971802 -0.009978629 0.0381397 0.049390297 0.05590902 -0.03340128 0.07326914 0.02479347
-0.013959615 -0.00017556426 0.04132271 -0.06921145 0.007836485 0.07200726 -0.019972293 0.10009413
0.044665556 -0.011033873 -0.07438257 0.09221065 0.07943726 -0.051908758 0.05519555 0.009288453
-0.08665096 0.08678249 0.04774409 -0.050214823 -0.06639807 -0.09860809 0.023526866 -0.03749269
0.094977096 -0.03114236 0.017982924 -0.031389702 -0.02678141 -0.008912772 0.069313444 0.091540284
-0.015272903 -0.08149008 0.028704742 0.0963896 0.078273706 -0.031572927 -0.06968466 0.06684475
0.065685034 0.03274527 0.059436798 -0.0014019796 0.058782607 -0.08914495 0.050370783 0.11653615
0.017259516 -0.047848266 -0.040788557 -0.06338698 -0.027366951 0.09312058 0.07072626 0.088144965

net.6.weight f4 [1, 64]
00000000: 2fa2 de3c 9db6 b03d 48f0 8cbc aeb3 9ebc
00000010: f878 c7bd 54eb bf3d 2849 453d 63fa fbbc
00000020: 72a1 4ebd b251 dfbd 5478 d8bd 8309 b43c
00000030: 59b3 0e3e dd1f e5bd de65 c23d 56ae 343d
00000040: 7509 413d 82f5 dd3d 1df8 13be 25d2 c83c
00000050: 262c 873d fc3e 193d d3c5 e1bd 78c2 f03c
00000060: 5505 2abd 4f3e 8c3d 92c0 c9bd 51e9 9d3d
00000070: 64da e4bd 2759 e9bd 5f77 fc3d 5231 dabd
00000080: 87d5 18be 632e 64bd 79be 163e 411e 0bbe
00000090: db23 9fbd 452e 3fbd 75e4 013d cd55 b03c
000000a0: 17dc e1bd 58c2 09be 0c6d f8bd a8f5 003e
000000b0: fba7 9abd 4f95 8abd 9cdf 7dbc 8651 e73c
000000c0: 2556 d5bd b6ff 86bd 36d8 f53d 05de dbbd
000000d0: d046 a63d e47c 3cbd 3f50 13bd a4a3 9f3d
000000e0: 580d 0cbe 3edc d53d 6d53 98bd 4bb8 aebd
000000f0: ef20 ff3d 2f90 353d 8c84 df3d a073 c83d
0.027176945 0.08628581 -0.017204419 -0.019372787 -0.0973987 0.09371057 0.04816547 -0.030759042
-0.050446935 -0.10904254 -0.10569826 0.021977192 0.13935603 -0.11187718 0.09492086 0.044111572
0.04712816 0.108378425 -0.14450116 0.024514267 0.066002175 0.037413582 -0.1102406 0.029389605
-0.04150899 0.06847822 -0.09851183 0.07710517 -0.11174467 -0.113939576 0.12327456 -0.10653938
-0.14925204 -0.0557083 0.14721097 -0.1358576 -0.07770511 -0.046674985 0.031712014 0.021525288
-0.11028307 -0.13453043 -0.12130174 0.1259371 -0.07551571 -0.067667596 -0.015495207 0.028237116
-0.104168214 -0.06591742 0.120041296 -0.10735706 0.08118975 -0.046017542 -0.0359652 0.07794884
-0.13676965 0.104423985 -0.07437787 -0.08531245 0.124574535 0.044326957 0.10913953 0.09787679
