backend/backend/luma_model.pth (torch, 89721 bytes, 5 tensors)

net.0.weight f4 [128, 103]
-0.09475504 -0.052265946 -0.035281412 -0.021830827 -0.041264556 0.010989732 -0.07292508 0.042634506
-0.059391808 -0.069476895 0.09402877 0.051896714 0.091555715 -0.024669727 -0.068474576 -0.04507665
0.015987763 -0.024199272 0.106592655 0.012524796 0.097137146 -0.07423076 -0.009630813 0.011789444
-0.009506468 -0.014683958 0.03794638 0.0164707 -0.07165504 0.103984326 -0.014129891 -0.03795265
0.027374985 -0.01786597 -0.063335575 -0.09434502 -0.032681677 0.09771171 0.08229987 0.004522468
-0.040436037 -0.03920505 -0.039849192 -0.08699755 0.04281492 0.084946975 -0.07945792 -0.065714315
0.02807437 -0.014190539 0.1066648 0.0038191662 0.11126506 0.011039126 -0.007208969 -0.011070992
-0.016388824 -0.061919753 -0.029104186 0.07154943 0.04003649 0.04324235 0.03355505 -0.008052443
0.026186677 0.046996266 -0.046741202 -0.0072998125 -0.011758439 -0.0059082285 -0.010151827 0.0016769235
0.033750053 -0.04182428 0.09247002 0.07666699 -0.0128434785 0.005866565 -0.048294693 0.02299755
0.0005246514 0.07685016 -0.072305635 -0.006230726 -0.00994828 0.06602725 -0.057704393 -0.079940796
-0.03971851 -0.064742394 -0.05931288 -0.006104579 -0.019574111 0.02308544 0.102428354 -0.025959857
0.04668775 0.0522853 0.10094639 0.09618746 -0.016447337 0.0990793 -0.045973413 0.081689835
0.05168458 0.07143237 -0.018643206 0.07240337 -0.0009915213 -0.01138649 0.03172767 0.07142118
0.009278872 -0.04645872 -0.0533485 -0.037280604 0.015884439 -0.063123606 0.10155666 0.007395939
-0.0032502203 -0.006261775 -0.07692597 0.024380544 -0.04969961 0.026679046 0.054722805 -0.083987184
0.083344355 -0.036300793 -0.09404073 -0.018491112 0.015902132 0.024778526 0.05060671 0.078573644
0.08833767 -0.08743497 -0.013766495 -0.008748675 -0.075346924 0.07318931 0.108765386 0.014579193
-0.01740334 0.08914582 0.08181592 -0.0393958 0.096175015 -0.0981968 0.07658374 0.08088179
0.09671088 -0.030029576 0.0923679 0.032080937 0.09073222 -0.010395153 0.071502775 -0.0047319257
0.090453744 0.021537416 0.0768358 -0.029372653 0.066494025 0.054124482 0.086542316 0.06696988
-0.04877339 -0.09754131 -0.037017155 -0.010432522 -0.03737592 0.056432117 -0.020833112 0.012863995
-0.06616767 0.087450005 -0.014707099 -0.06724062 0.08330238 0.01892913 0.06521429 -0.060296968
0.016833559 -0.06775764 0.08281599 -0.0142862275 0.07585915 0.02473068 0.046931233 0.026459137
0.03087252 -0.01563053 0.012614893 -0.049264174 0.013447243 0.055349775 -0.046100687 0.028054887
0.062809296 -0.04680896 0.06617459 -0.1309583 -0.04543483 0.009272231 0.046710163 -0.035047375
-0.10552908 -0.07151985 -0.09720231 -0.08160274 0.033529207 0.049707316 -0.0041422755 0.00016245226
0.07721431 -0.034986287 -0.07785869 -0.017282145 -0.030082522 -0.011523487 0.09098507 0.094076954
0.017487146 -0.07516171 -0.06869892 0.08028397 -0.0020034704 -0.040629428 -0.029121093 -0.050716385
0.0818035 0.048697848 -0.023393216 0.07516574 -0.06009437 0.05904215 -0.008574998 -0.0133896265
0.04127861 -0.01989474 -0.014342232 0.0796656 0.05662582 0.07678636 -0.08721733 -0.051390134
0.011715374 0.07964873 0.049678255 -0.046514373 -0.0059749126 -0.08708026 -0.088327594 0.064366475
00000000: ee0e c2bd d114 56bd 3e83 10bd 90d6 b2bc
00000010: 0605 29bd 470e 343c bf59 95bd 85a1 2e3d
00000020: d344 73bd e749 8ebd 2892 c03d a691 543d
00000030: 9081 bb3d 2b18 cabc 663c 8cbd 4ba2 38bd
00000040: c5f8 823c 8d3d c6bc 404d da3d cd34 4d3c
00000050: d7ef c63d 4c06 98bd 8fca 1dbc 8328 413c
00000060: 04c1 1bbc fc94 70bc aa6d 1b3d 90ed 863c
00000070: e1bf 92bd bcf5 d43d 0f81 67bc 3d74 1bbd
00000080: 8141 e03c a85b 92bc 15b6 81bd f637 c1bd
00000090: 39dd 05bd 141d c83d d68c a83d 3631 943b
000000a0: 42a0 25bd 7995 20bd e838 23bd c62b b2bd
000000b0: b35e 2f3d aef8 ad3d d5ba a2bd 3a95 86bd
000000c0: 39fc e53c 6f7f 68bc 1373 da3d fa4a 7a3b
000000d0: f0de e33d 73dd 343c 3739 ecbb 1b63 35bc
000000e0: db41 86bc 919f 7dbd e76b eebc 8288 923d
000000f0: 4dfd 233d e41e 313d 0571 093d 65ee 03bc
00000100: 7185 d63c 287f 403d b473 3fbd 4433 efbb
00000110: 78a6 40bc d099 c1bb d953 26bc 37cc db3a
00000120: 7f3d 0a3d f04f 2bbd ec60 bd3d 9503 9d3d
00000130: 746d 52bc 503c c03b a8d0 45bd 5c65 bc3c
00000140: c288 093a 9e63 9d3d fa14 94bd 1e2b ccbb
00000150: 1cfe 22bc 4b39 873d 715b 6cbd 00b8 a3bd
00000160: e0af 22bd a997 84bd 10f2 72bd ec08 c8bb
00000170: e359 a0bc ad1d bd3c f5c5 d13d c4a9 d4bc
00000180: a73b 3f3d 1c29 563d fbbc ce3d eefd c43d
00000190: 91bc 86bc 17ea ca3d 9e4e 3cbd 004d a73d
000001a0: 36b3 533d 224b 923d a3b9 98bc 3848 943d
000001b0: eff5 81ba 678e 3abc e0f4 013d 4545 923d
000001c0: 6906 183c 804b 3ebd f583 5abd 8cb3 18bd
000001d0: 1520 823c f346 81bd f0fc cf3d a259 f23b
000001e0: a601 55bb 932f cdbb 5d8b 9dbd b5b9 c73c
000001f0: d191 4bbd 048e da3c 0525 603d 7901 acbd
00000200: 72b0 aa3d 24b0 14bd 6d98 c0bd ac7a 97bc
00000210: 3045 823c 56fc ca3c fb48 4f3d 38eb a03d
00000220: 61ea b43d 1b11 b3bd dd8c 61bc 9a56 0fbc
00000230: 7d4f 9abd 47e4 953d 63c0 de3d 91dd 6e3c
00000240: 7391 8ebc 1592 b63d 1b8f a73d 7e5d 21bd
00000250: 68f7 c43d 671b c9bd f0d7 9c3d 5aa5 a53d
00000260: 5b10 c63d 9600 f6bc 622b bd3d 4d67 033d
00000270: d0d1 b93d 6f50 2abc 0c70 923d 450e 9bbb
00000280: d03f b93d 3c6f b03c 175c 9d3d eb9e f0bc
00000290: 052e 883d a2b1 5d3d 193d b13d 8127 893d
000002a0: 9bc6 47bd bdc3 c7bd 4d9f 17bd 2bed 2abc
000002b0: 7e17 19bd 5d25 673d 34aa aabc 81c3 523c
000002c0: ea82 87bd fd18 b33d 0bf6 70bc 73b5 89bd
000002d0: 709a aa3d 4311 9b3c 128f 853d f4f9 76bd
000002e0: 88e6 893c 84c4 8abd 6e9b a93d c810 6abc
000002f0: 0b5c 9b3d ff97 ca3c f73a 403d d5c0 d83c
00000300: 5ee8 fc3c 990b 80bc b2ae 4e3c 3bc9 49bd
00000310: d351 5c3c 72b6 623d 13d4 3cbd 5dd3 e53c
00000320: 29a2 803d c1ba 3fbd 8b86 873d ef19 06be
00000330: df19 3abd 8eea 173c 2853 3f3d d68d 0fbd
00000340: a11f d8bd 0079 92bd 0112 c7bd 561f a7bd
00000350: ec55 093d e699 4b3d edbb 87bb f257 2a39
00000360: 8922 9e3d c84d 0fbd 6074 9fbd 4993 8dbc
00000370: 9f6f f6bc 02cd 3cbc 6156 ba3d 6bab c03d
00000380: 3441 8f3c 62ee 99bd 05b2 8cbd ec6b a43d
00000390: a84c 03bb 0b6b 26bd 5c8f eebc fcbb 4fbd
000003a0: 9888 a73d 6577 473d 21a3 bfbc 7ff0 993d
000003b0: 8425 76bd 2ed6 713d 267e 0cbc 2a60 5bbc
000003c0: c213 293d 4bfa a2bc aefb 6abc b827 a33d
000003d0: 7af0 673d 2b42 9d3d 009f b2bd 767e 52bd
000003e0: d7f1 3f3c e01e a33d 6d7b 4b3d db85 3ebd
000003f0: 33c9 c3bb 2357 b2bd 19e5 b4bd 92d2 833d

net.0.bias f4 [128]
0.053549927 -0.060509026 -0.01820301 0.09885194 0.111984074 -0.05353456 0.10630735 0.1048966
0.051773917 0.109683014 0.07273882 -0.04840851 0.078578055 -0.07617109 0.07133718 0.03377961
0.095614165 -0.045037158 -0.009979831 0.08888404 0.08095659 0.012231386 -0.007962122 -0.02741114
-0.0012823668 0.0065948186 -0.048639484 0.056643263 -0.0031446444 0.06052531 -0.037827883 -0.09109431
-0.07882209 -0.08111589 0.049335558 0.08866636 -0.09647407 0.10862082 0.018755682 0.011153803
0.044685557 -0.05898635 0.056524303 0.13132443 0.013425993 0.08479863 0.042051643 -0.06830264
-0.08150237 -0.02821829 0.075632446 0.09436913 0.06849677 -0.009988365 0.04803139 0.107505456
0.07963953 0.09783246 0.08531285 0.03009792 0.038019523 -0.07706363 0.028463656 0.08806745
0.022825005 0.030716555 0.009549787 0.07569314 0.051657915 -0.035770416 0.08460399 0.13240908
0.11778873 0.06436305 0.0880952 0.018469803 -0.0034810076 0.039004397 0.044172216 0.06534789
-0.03229973 0.07019172 0.032903545 -0.0692193 0.08883724 -0.0027933358 0.09845349 0.04916204
-0.061007056 0.024190327 0.055564053 -0.022924677 0.07320434 -0.018423814 0.09663313 0.013973909
0.07106305 0.028031688 -0.04797542 0.016717631 0.015848007 -0.08929845 -0.035592906 0.028843127
-0.056721278 0.00703725 0.06962926 0.01298631 -0.017539188 -0.07043095 -0.022169277 -0.07000258
0.016872363 0.075826176 -0.02104893 0.012358036 -0.002048905 -0.037073605 0.02576433 -0.061075788
0.029640585 -0.0059939465 -0.039285026 -0.08620417 -0.05499012 0.0018479271 -0.003423096 0.023377674
00000000: 2b57 5b3d 50d8 77bd 7b1e 95bc e372 ca3d
00000010: e857 e53d 0e47 5bbd abb7 d93d 07d4 d63d
00000020: e310 543d 7da1 e03d 17f8 943d 0048 46bd
00000030: 88ed a03d 97ff 9bbd 3a19 923d 7d5c 0a3d
00000040: 5cd1 c33d e278 38bd 7282 23bc d608 b63d
00000050: 92cc a53d 2766 483c 8f73 02bc 548d e0bc
00000060: 1715 a8ba 5919 d83b 323a 47bd c402 683d
00000070: 6116 4ebb 63e9 773d 69f1 1abd a78f babd
00000080: 7a6d a1bd 1620 a6bd 1514 4a3d b596 b53d
00000090: 3294 c5bd 9874 de3d 84a5 993c 71be 363c
000000a0: 3408 373d ac9b 71bd 0786 673d e979 063e
000000b0: b2f8 5b3c e7aa ad3d 583e 2c3d 41e2 8bbd
000000c0: b7ea a6bd 0b2a e7bc 2fe5 9a3d 9a44 c13d
000000d0: 0948 8c3d 3da6 23bc 90bc 443d d22b dc3d
000000e0: 0d1a a33d 635c c83d 81b8 ae3d ea8f f63c
000000f0: 5cba 1b3d 89d3 9dbd 9d2c e93c b55c b43d
00000100: 81fb ba3c 49a1 fb3c b676 1c3c 0105 9b3d
00000110: 4097 533d 0084 12bd db44 ad3d 3f96 073e
00000120: 383b f13d c6d0 833d 426b b43d fc4d 973c
00000130: 9e21 64bb 13c3 1f3d eded 343d 1dd5 853d
00000140: b94c 04bd adc0 8f3d dec5 063d d9c2 8dbd
00000150: 4df0 b53d 6610 37bb fca1 c93d 235e 493d
00000160: 89e2 79bd cb2a c63c 2297 633d 88cc bbbc
00000170: 28ec 953d 8aed 96bc 97e7 c53d d3f2 643c
00000180: 8189 913d b6a2 e53c e081 44bd 6af3 883c
00000190: aed3 813c 1be2 b6bd dec9 11bd 6c48 ec3c
000001a0: 9254 68bd bb98 e63b c999 8e3d 88c4 543c
000001b0: 58ae 8fbc 1a3e 90bd 589c b5bc 835d 8fbd
000001c0: e937 8a3c c14a 9b3d ce6e acbc 5c79 4a3c
000001d0: ec46 06bb 7eda 17bd b70f d33c 9b2a 7abd
000001e0: d0d0 f23c de68 c4bb 56e9 20bd d08b b0bd
000001f0: 523d 61bd 2536 f23a 0556 60bb 8982 bf3c

net.3.weight f4 [64, 128]
-0.09034473 0.07069491 0.022861116 0.03779088 0.015614409 0.063329846 -0.0432607 -0.0013004958
-0.037142105 -0.051200423 -0.04910035 -0.050043643 0.054376565 0.054109003 -0.04494904 -0.040647134
-0.085788265 -0.037284277 -0.057768475 0.023684869 -0.0008102954 -0.039002936 0.030949676 -0.089482814
-0.05929474 0.005284751 0.04214512 -0.033562046 -0.044171304 -0.061240852 0.0144475065 -0.026895631
-0.08383752 -0.01145755 0.01890702 -0.08577635 0.02203142 -0.013956795 0.03145491 -0.055596307
0.053445157 0.00050598715 0.018719168 -0.0020546913 0.012937 -0.06584142 0.06539524 0.0074599595
0.08143472 -0.050337877 -0.07700044 -0.047925666 -0.06239642 0.084324345 0.06517693 -0.03878026
0.0313302 0.05984384 -0.07395657 -0.04959766 0.06104779 0.090740554 0.054408558 -0.07439024
-0.022039058 0.026796497 -0.072411366 -0.078227006 -0.042257193 0.08756846 -0.027136251 -0.0021850814
-0.01795545 0.06692384 0.067890786 0.05459139 -0.038830604 0.071899265 -0.05387361 0.07227588
-0.012951047 -0.07178075 -0.02306775 0.07238035 -0.030142577 -0.006178932 -0.044538874 -0.07341815
0.076297 0.07731778 -0.04398098 0.061870947 0.020129463 0.02032755 0.065672025 0.014508501
-0.0554572 -0.06923718 0.026228234 0.026164109 0.08016981 0.014635075 -0.06690165 -0.035061542
-0.011098529 0.046145238 -0.05107269 0.055801474 -0.04381635 0.00756037 -0.013043905 0.08742559
0.0116773285 0.0029263902 0.007759206 0.080259964 0.0007098473 -0.040876 -0.07110467 0.08069632
-0.02855615 0.018712299 -0.069085665 -0.047010332 -0.029049959 -0.002784233 0.009543854 -0.07810276
0.022991925 -0.029273111 -0.0137145035 -0.08529062 0.035661545 -0.09311382 -0.0062036393 -0.012276372
0.044731844 0.057301514 0.007701814 0.101654366 -0.013575019 0.051605016 -0.028331978 -0.057273403
0.06328374 0.033697933 -0.026114864 -0.050035853 0.010835246 -0.034396265 -0.090902865 0.059790004
-0.06535463 -0.041922294 -0.07635433 -0.0012378285 -0.08013039 0.013962406 -0.05218971 -0.04405671
-0.0074680946 -0.034592975 0.014046427 0.06232733 0.031883057 -0.043797426 0.079878196 -0.007801852
-0.051521916 0.022965321 -0.0018737364 -0.027915228 -0.069187425 0.028366039 -0.09151901 -0.005516491
-0.02827066 -0.03174459 -0.011969878 0.0021435646 -0.04325103 -0.08038952 0.0022951844 0.031840153
-0.081823334 -0.039709527 0.059290938 -0.06870368 -0.08428523 0.033262756 0.07840964 -0.0043413714
0.057918444 0.007817616 -0.0042079543 0.035240777 0.070132025 -0.06460436 -0.055120904 0.015522033
-0.0078135 0.015601775 0.058852814 0.07257454 0.024775669 -0.024058906 0.033714965 0.05171994
-0.075923674 0.05488654 -0.053195093 0.0677414 0.07491741 -0.077847235 -0.039290104 -0.049145315
0.032244526 0.04979323 -0.015170175 -0.04937422 0.00636451 0.025617262 -0.0053575183 0.047103733
-0.03730783 -0.07136982 0.044947084 -0.03224971 -0.02455095 -0.047871426 0.029589133 0.047372542
0.042593583 -0.047367647 0.017393488 -0.029161384 -0.085549966 -0.04595288 -0.05128674 0.060769808
-0.05309308 0.056238573 -0.022984153 0.04336678 0.0012488127 0.06759298 -0.044945415 -0.03923174
-0.0014880107 -0.063508645 -0.002614009 0.06617729 0.07493616 0.0055820444 0.00831163 -0.057278097
00000000: a806 b9bd 7ec8 903d 3c47 bb3c 9cca 1a3d
00000010: 94d3 7f3c 14b3 813d 2232 31bd 6675 aaba
00000020: 5222 18bd 89b7 51bd 731d 49bd 90fa 4cbd
00000030: f6b9 5e3d 67a1 5d3d 7c1c 38bd 9c7d 26bd
00000040: c2b1 afbd 66b7 18bd a39e 6cbd c506 c23c
00000050: 016a 54ba 8bc1 1fbd 2d8a fd3c c442 b7bd
00000060: 0bdf 72bd b42b ad3b 5da0 2c3d 5b78 09bd
00000070: f8ec 34bd b0d7 7abd 3cb5 6c3c 3a54 dcbc
00000080: 01b3 abbd 73b8 3bbc e5e2 9a3c 83ab afbd
00000090: 3d7b b43c 0bab 64bc ddd6 003d f4b8 63bd
000000a0: 4fe9 5a3d 39a4 043a f158 993c 00a8 06bb
000000b0: b6f5 533c ded7 86bd f1ed 853d ad72 f43b
000000c0: 3fc7 a63d 172f 4ebd 68b2 9dbd b44d 44bd
000000d0: 6393 7fbd 3eb2 ac3d 7b7b 853d 0dd8 1ebd
000000e0: 1954 003d d01e 753d 8b76 97bd ea26 4bbd
000000f0: 3f0d 7a3d 2fd6 b93d 82db 5e3d e959 98bd
00000100: 418b b4bc 5484 db3c 694c 94bd 7b35 a0bd
00000110: e115 2dbd 1857 b33d d84c debc 9533 0fbb
00000120: 4f17 93bc 5e0f 893d 530a 8b3d 399b 5f3d
00000130: d70c 1fbd ec3f 933d 93aa 5cbd 6005 943d
00000140: a130 54bc c901 93bd 94f8 bcbc 263c 943d
00000150: 91ed f6bc a378 cabb 656e 36bd 415c 96bd
00000160: 9a41 9c3d c958 9e3d 6625 34bd 646c 7d3d
00000170: 8be6 a43c f685 a63c 0e7f 863d 10b5 6d3c
00000180: 1727 63bd 39cc 8dbd 98dc d63c 1d56 d63c
00000190: 1230 a43d f4c7 6f3c bb03 89bd b19c 0fbd
000001a0: 9bd6 35bc ca02 3d3d 9931 51bd 1690 643d
000001b0: c678 33bd fbbc f73b 1ab6 55bc 300c b33d
000001c0: 4452 3f3c aec8 3f3b f040 fe3b 565f a43d
000001d0: 0c15 3a3a 986d 27bd 539f 91bd 1d44 a53d
000001e0: 96ee e9bc 894a 993c c97c 8dbd e88d 40bd
000001f0: 2efa edbc ae77 36bb d35d 1c3c 57f4 9fbd
00000200: 9059 bc3c 2ace efbc ccb2 60bc d9ac aebd
00000210: d711 123d 75b2 bebd e647 cbbb d622 49bc
00000220: bd38 373d feb4 6a3d 805f fc3b 2a30 d03d
00000230: c269 5ebc c85f 533d 7718 e8bc 8497 6abd
00000240: e89a 813d d806 0a3d d7ee d5bc 65f2 4cbd
00000250: 5186 313c 19e3 0cbd 482b babd 5de6 743d
00000260: a6d8 85bd b6b6 2bbd a95f 9cbd a23e a2ba
00000270: 671b a4bd 93c2 643c e1c4 55bd cf74 34bd
00000280: ebb6 f4bb 5db1 0dbd fc22 663c f14a 7f3d
00000290: cf97 023d ee64 33bd 2e97 a33d aea6 ffbb
000002a0: a508 53bd c521 bc3c 2998 f5ba 7aae e4bc
000002b0: 23b2 8dbd e55f e83c 526e bbbd aec3 b4bb
000002c0: df97 e7bc 9d06 02bd 4f1d 44bc 0c7b 0c3b
000002d0: fe27 31bd 43a3 a4bd ce6a 163b d26a 023d
000002e0: fe92 a7bd 75a6 22bd 0edb 723d 84b4 8cbd
000002f0: bc9d acbd 873e 083d 3c95 a03d 1042 8ebb
00000300: e43b 6d3d 7515 003c e1e2 89bb a258 103d
00000310: 61a1 8f3d 4a4f 84bd 75c6 61bd 2050 7e3c
00000320: 3204 00bc 969e 7f3c a60f 713d f6a1 943d
00000330: 58f6 ca3c 2f17 c5bc b418 0a3d 4ad8 533d
00000340: df7d 9bbd b5d0 603d 19e3 59bd 01bc 8a3d
00000350: 4d6e 993d 5f6e 9fbd a9ee 20bd 994c 49bd
00000360: d612 043d fcf3 4b3d 538c 78bc 9f3c 4abd
00000370: 618d d03b 4bdb d13c 1f8e afbb d8ef 403d
00000380: 18d0 18bd 572a 92bd 6f1a 383d 4618 04bd
00000390: 131f c9bc d414 44bd e964 f23c b609 423d
000003a0: 9c76 2e3d 9404 42bd ca7c 8e3c dbe3 eebc
000003b0: d234 afbd 1639 3cbd 0b12 52bd c3e9 783d
000003c0: 2178 59bd 6b5a 663d 4349 bcbc 5da1 313d
000003d0: 33af a33a 306e 8a3d af18 38bd 76b1 20bd
000003e0: 5b09 c3ba d210 82bd cb4f 2bbb f687 873d
000003f0: 2178 993d 95e9 b63b 812d 083c 709c 6abd

net.3.bias f4 [64]
-0.07794851 -0.040473428 -0.08051122 -0.028226677 0.08667404 0.021375317 0.070429385 -0.040459417
-0.031927347 0.045431912 0.09130795 0.023405345 0.04285168 0.009092257 0.04490596 0.11260873
0.08114983 0.0077636954 0.017616922 0.07475885 0.11446554 -0.01661477 0.049846124 -0.028657816
-0.048233565 0.10049525 0.026252856 0.11260717 0.11999985 -0.022153376 -0.01925792 -0.07019818
0.05964527 0.028284986 0.05405866 -0.05915789 0.022455683 -0.016615579 0.0026726 0.03597165
0.010591703 -0.038448382 0.044977866 0.01391967 -0.037248664 0.009564555 0.016739488 -0.008644805
0.10997532 0.0072830915 0.06469821 0.09595974 0.070400715 0.07500173 0.015800618 -0.056451976
0.04124155 -0.05376572 -0.09602481 0.031754572 -0.015198216 -0.028239198 -0.033898126 0.09440727
00000000: 78a3 9fbd 77c7 25bd 11e3 a4bd a23b e7bc
00000010: 2982 b13d 4a1b af3c 483d 903d c6b8 25bd
00000020: 40c6 02bd d016 3a3d aaff ba3d 91bc bf3c
00000030: 3e85 2f3d b1f7 143c 50ef 373d 689f e63d
00000040: e231 a63d 9966 fe3b 5d51 903c 2b1b 993d
00000050: e96c ea3d b31b 88bc 732b 4c3d ccc3 eabc
00000060: 8f90 45bd 74d0 cd3d 3b10 d73c 979e e63d
00000070: 7bc2 f53d ff7a b5bc c9c2 9dbc 10c4 8fbd
00000080: 994e 743d eab5 e73c 9d6c 5d3d 8b4f 72bd
00000090: fbf4 b73c 651d 88bc ca26 2f3b 0257 133d
000000a0: d288 2d3c 0d7c 1dbd b63a 383d 540f 643c
000000b0: 0e92 18bd a7b4 1c3c 4021 893c f1a2 0dbc
000000c0: be3a e13d 00a7 ee3b 7f80 843d 8a86 c43d
000000d0: 402e 903d 829a 993d 4c70 813c 303a 67bd
000000e0: e6ec 283d 7239 5cbd a8a8 c4bd 1511 023d
000000f0: f001 79bc e455 e7bc c3d8 0abd 9958 c13d

net.6.weight f4 [1, 64]
0.11781028 -0.03226364 -0.10355876 -0.046924934 0.07345537 -0.0478874 -0.013854935 0.088996835
-0.13528335 -0.120778516 0.14018622 0.062637985 -0.05713906 0.11550948 -0.011891961 0.058519755
0.022191823 0.09976436 0.007312645 0.079823606 0.05083289 -0.058861185 -0.047366217 -0.09255056
-0.091673136 0.072289646 0.03492931 0.09171187 0.094307125 -0.039491355 0.038936168 -0.07061445
0.13040426 0.12462658 0.04558983 -0.10444704 0.11422142 0.033945955 -0.041521385 -0.09307148
-0.11115555 -0.13751742 0.07094564 -0.07800661 0.044671718 -0.11147236 0.14651886 0.081219465
0.08845647 -0.04902987 0.11629285 0.09448048 -0.112894736 0.0707707 0.11368024 -0.13778098
0.069148764 0.07494047 -0.023749668 0.09609845 -0.08458156 -0.01983945 0.030592494 0.14122505
00000000: 8446 f13d e126 04bd 9d16 d4bd 5c34 40bd
00000010: c56f 963d 9425 44bd cfff 62bc f943 b63d
00000020: b887 0abe ba5a f7bd fa8c 0f3e 5848 803d
00000030: a60a 6abd 3c90 ec3d 80d6 42bc 69b2 6f3d
00000040: a0cb b53c 4251 cc3d ea9e ef3b 8f7a a33d
00000050: 2636 503d 6d18 71bd 1403 42bd 268b bdbd
00000060: 20bf bbbd 980c 943d 0912 0f3d 6fd3 bb3d
00000070: 1824 c13d b0c1 21bd 887b 1f3d 4f9e 90bd
00000080: b288 053e 383c ff3d 67bc 3a3d 54e8 d5bd
00000090: ebec e93d ea0a 0b3d 5412 2abd 439c bebd
000000a0: 85a5 e3bd 5ed1 0cbe f34b 913d eec1 9fbd
000000b0: b1f9 363d 9f4b e4bd 0a09 163e 6456 a63d
000000c0: aa28 b53d 8cd3 48bd f22a ee3d fb7e c13d
000000d0: 5b35 e7bd 3bf0 903d 30d1 e83d 7516 0dbe
000000e0: de9d 8d3d 647a 993d aa8e c2bc 44cf c43d
000000f0: 1939 adbd 5886 a2bc 1c9d fa3c 4d9d 103e
