backend/backend/luma_model.pth (torch, 89721 bytes, 5 tensors)

net.0.weight f4 [128, 103]
0.022290848 -0.006821743 -0.002695892 -0.021894587 0.04034606 0.03271064 -0.090334706 0.022896172
-0.024094183 0.08983198 -0.040649023 0.042989537 -0.049735837 0.06903654 0.058574293 -0.027256228
-0.036273297 0.022992114 -0.00015257316 0.021080997 0.0427725 -0.05764709 -0.061498348 -0.072049
-0.096740454 0.083467014 0.06279003 -0.053177144 -0.018822528 -0.038751025 0.09559069 0.008766648
-0.049430653 0.03625752 0.088934965 0.09107358 0.012518693 -0.020521324 -0.037293114 -0.06343962
0.048068658 0.018308252 -0.104793854 -0.026075643 0.07560312 0.006311944 -0.084660865 0.09199784
-0.08717161 0.0377571 0.04981002 0.078213036 -0.019281905 0.026815107 -0.06352323 0.036023654
-0.11258968 -0.11121733 -0.06621187 0.090624355 -0.084067196 -0.055520497 -0.065262854 0.05569154
-0.065449625 -0.02343779 -0.067696415 0.098888606 -0.095185265 0.038596105 -0.12701996 -0.08895105
-0.012638434 0.03759634 -0.07517032 0.09170017 -0.03067738 0.008531947 -0.0861745 0.02494599
-0.04289841 0.040435422 -0.048569288 0.032262333 -0.06876869 -0.03841223 0.0693262 -0.015974367
0.01300057 0.012204946 0.07315042 0.052480374 -0.06636552 -0.009334286 -0.009693237 0.01250483
-0.0015898594 -0.06690533 0.06428615 -0.062144212 0.02208916 -0.10403246 0.022837494 0.0778378
-0.027022567 -0.022170948 0.06978452 0.023029858 -0.043432217 0.04287879 -0.026697427 -0.08212315
-0.062161725 0.045233157 0.038993157 -0.072108045 0.09556288 0.04721273 0.07190196 -0.047744714
-0.034540232 -0.07565514 0.0920979 0.008245974 0.06494803 0.08776725 -0.05646081 0.09222698
0.011699451 0.057577074 -0.024905428 -0.083667986 0.04389604 0.111507945 0.02466235 0.08829349
-0.04589647 -0.059088547 0.018500097 0.06287946 0.064322025 0.090988286 0.09847493 -0.031678505
-0.014698192 0.09095012 -0.06455706 -0.09365922 -0.0244387 0.07621884 0.04702871 -0.03935742
-0.09762698 -0.024207788 0.015378996 -0.0041967444 -0.05002937 -0.039151162 -0.03554451 0.0887855
-0.016451333 0.08105546 -0.09174919 0.11053048 0.07165597 0.0816917 -0.011150662 0.10144217
0.007537645 -0.06140009 0.0664095 -0.065211125 -0.007912533 -0.006979687 -0.031186158 -0.026789013
-0.055116024 0.08210363 0.11102185 -0.046702392 0.07524497 -0.014326784 -0.05114507 -0.10229701
0.054644696 0.051132403 0.0057260287 0.0018067248 0.011186372 0.07490637 0.08656501 0.016931297
-0.029493753 -0.104385994 -0.05881624 0.106626 0.044824004 0.019363428 0.03211967 -0.010109664
-0.07022796 0.05343229 0.039376877 0.038166255 -0.075469844 0.109967634 -0.036133572 0.04628347
-0.006430786 -0.09505488 0.06884726 0.042523883 -0.061324514 0.09701208 -0.00676095 0.0050493935
0.05204445 -0.06290762 0.038004838 -0.031105906 -0.064646855 0.105728015 -0.009887607 -0.005218741
0.013289609 -0.086017065 -0.05469502 0.14554876 0.06933031 0.0569151 -0.09364062 0.033359766
0.008853634 0.028839111 -0.06970173 0.020642743 -0.09276478 -0.022134705 -0.09738747 -0.04283084
0.05714354 0.0046973266 -0.021865966 0.014052923 0.03692645 0.0372753 -0.0052879774 -0.091128245
0.095032014 -0.08862611 0.045166057 0.036754373 -0.09908451 0.01759537 -0.059242312 -0.020708429
00000000: 4c9b b63c ee88 dfbb 90ad 30bb 475c b3bc
00000010: e941 253d 98fb 053d 6701 b9bd c190 bb3c
00000020: 2a61 c5bc d4f9 b73d 977f 26bd cc15 303d
00000030: ceb7 4bbd 0863 8d3d 99eb 6f3d 7448 dfbc
00000040: 4f93 14bd f559 bc3c 0cfc 1fb9 0eb2 ac3c
00000050: 3832 2f3d 5b1f 6cbd b1e5 7bbd 6d8e 93bd
00000060: dc1f c6bd c1f0 aa3d 0f98 803d 47d0 59bd
00000070: b431 9abc 65b9 1ebd 0dc5 c33d fda1 0f3c
00000080: cc77 4abd c482 143d 8923 b63d c984 ba3d
00000090: 341b 4d3c 561c a8bc aac0 18bd a2ec 81bd
000000a0: a4e3 443d 30fb 953c 299e d6bd 969c d5bc
000000b0: cfd5 9a3d 6dd4 ce3b ad62 adbd 5d69 bc3d
000000c0: 0787 b2bd 30a7 1a3d 9705 4c3d 282e a03d
000000d0: 16f5 9dbc 5bab db3c 7818 82bd 8a8d 133d
000000e0: 6b95 e6bd e9c5 e3bd 179a 87bd 4399 b93d
000000f0: 6c2b acbd 7669 63bd 88a8 85bd d01c 643d
00000100: 740a 86bd 9c00 c0bc 6ba4 8abd 1c86 ca3d
00000110: 7ef0 c2bd f316 1e3d 8511 02be f82b b6bd
00000120: 6f11 4fbc 9ffe 193d e6f2 99bd 4ccd bb3d
00000130: 214f fbbc 94c9 0b3c 427c b0bd 885b cc3c
00000140: 3eb6 2fbd 9d9f 253d 97f0 46bd 8225 043d
00000150: 99d6 8cbd 2456 1dbd e5fa 8d3d addc 82bc
00000160: 5800 553c 41f7 473c e3cf 953d a9f5 563d
00000170: a5ea 87bd d5ee 18bc 62d0 1ebc 0fe1 4c3c
00000180: d462 d0ba a905 89bd 75a8 833d ee8a 7ebd
00000190: 53f4 b43c f80e d5bd b215 bb3c 6d69 9f3d
000001a0: 6e5e ddbc d99f b5bc 30eb 8e3d 1da9 bc3c
000001b0: fbe5 31bd aca1 2f3d 90b4 dabc 2f30 a8bd
000001c0: 4b9d 7ebd 6746 393d 4ab7 1f3d 62ad 93bd
000001d0: 79b6 c33d 2362 413d 5641 933d f68f 43bd
000001e0: 0f7a 0dbd 15f1 9abd d39d bc3d 1f1a 073c
000001f0: 7903 853d 51bf b33d 7343 67bd 80e1 bc3d
00000200: 0eaf 3f3c f0d5 6b3d 7806 ccbc 1f5a abbd
00000210: 56cc 333d 475e e43d b208 ca3c 38d3 b43d
00000220: f0fd 3bbd d506 72bd 848d 973c f2c6 803d
00000230: 44bb 833d 1158 ba3d 39ad c93d 52c1 01bd
00000240: afd0 70bc 0e44 ba3d 7e36 84bd 68d0 bfbd
00000250: ab33 c8bc a018 9c3d 2da1 403d 3f35 21bd
00000260: a7f0 c7bd 694f c6bc 2ff8 7b3c d884 89bb
00000270: 99eb 4cbd f85c 20bd 1f97 11bd 2cd5 b53d
00000280: f2c4 86bc 6800 a63d 00e7 bbbd ce5d e23d
00000290: 5dc0 923d fa4d a73d 44b1 36bc eac0 cf3d
000002a0: 59fe f63b a97e 7bbd b401 883d 698d 85bd
000002b0: 92a3 01bc dcb5 e4bb 1d7a ffbc a274 dbbc
000002c0: 57c1 61bd f325 a83d 6c5f e33d 024b 3fbd
000002d0: 091a 9a3d e3ba 6abc 7e7d 51bd 1881 d1bd
000002e0: 1ed3 5f3d 3670 513d 69a1 bb3b a0cf ec3a
000002f0: 0b47 373c 8368 993d ff48 b13d 81b3 8a3c
00000300: e29c f1bc 53c8 d5bd 4ce9 70bd bb5e da3d
00000310: 6099 373d 0da0 9e3c ea8f 033d 01a3 25bc
00000320: add3 8fbd d1db 5a3d a649 213d 3854 1c3d
00000330: ef8f 9abd b636 e13d cc00 14bd bc93 3d3d
00000340: 58b9 d2bb 22ac c2bd cbff 8c3d 862d 2e3d
00000350: 6a2f 7bbd 45ae c63d f68a ddbb 6275 a53b
00000360: 902c 553d b6d5 80bd f6aa 1b3d d0d1 febc
00000370: 9265 84bd ee87 d83d a1ff 21bc f901 abbb
00000380: a9bc 593c b729 b0bd e307 60bd bc0a 153e
00000390: 0dfd 8d3d cf1f 693d a7c6 bfbd 40a4 083d
000003a0: d50e 113c 0040 ec3c c8bf 8ebd f81a a93c
000003b0: 76fb bdbd d753 b5bc 1573 c7bd 646f 2fbd
000003c0: 580f 6a3d 08ec 993b 4120 b3bc 3b3e 663c
000003d0: 3040 173d fcad 183d c546 adbb 72a1 babd
000003e0: 25a0 c23d 9b81 b5bd 0b00 393d c18b 163d
000003f0: d2ec cabd 2a24 903c 11a8 72bd b9a4 a9bc

net.0.bias f4 [128]
0.02396965 -0.03931303 0.050380584 -0.09658739 0.04611133 -0.026953386 -0.052352026 0.020216174
-0.09813786 -0.07912018 -0.085835434 -0.034438122 -0.089833625 -0.091385536 -0.050733797 -0.05145819
-0.08496875 -0.07726935 0.09922714 -0.030153116 0.09764449 -0.024270503 0.05207392 0.027555786
-0.034682807 0.034109928 0.053193416 -0.01508054 -0.0003121976 -0.07181541 0.091541566 0.025441121
0.016219746 0.056028917 0.022829855 -0.026442388 0.046383407 0.001706964 -0.03635693 0.01095872
0.055479694 -0.089715965 0.0041703964 0.01983368 0.075664535 0.08810998 -0.046978194 0.014338521
0.015372943 -0.054201867 -0.06309865 0.10681762 0.05210617 -0.0433453 0.083968 0.07232597
-0.025578052 -0.023709754 0.023398276 0.045020085 -0.038669594 0.03641721 -0.021821907 -0.083842464
-0.08651822 0.007887572 -0.0227117 0.019700615 -0.027651375 0.048434466 0.07852126 0.016265055
-0.00021054456 0.06299995 -0.011322498 -0.06822711 -0.06044641 -0.018292222 -0.055858914 0.040843785
0.09086886 0.014188158 0.055992603 -0.060559623 -0.017879589 0.07555722 -0.011812029 0.08229595
-0.040723767 -0.0684013 0.10529066 -0.022946311 -0.06627825 -0.012002879 0.07744446 0.016450975
0.07390754 -0.019949524 0.014648538 -0.032870483 -0.059811447 -0.05823054 0.07855096 -0.01814251
0.014014493 0.08809094 -0.04623541 -0.034660563 -0.056712344 -0.061705954 0.034261122 -0.10181296
0.101160064 0.016020384 -0.023856863 -0.012458237 0.016368544 -0.021082833 0.05335456 -0.090305865
-0.045087658 -0.03200914 -0.05443581 -0.043177962 -0.06201135 0.019344902 0.010230379 -0.05769455
00000000: 005c c43c b306 21bd df5b 4e3d 9ccf c5bd
00000010: 3cdf 3c3d 59cd dcbc 146f 56bd 649c a53c
00000020: 81fc c8bd c309 a2bd 7dca afbd fd0e 0dbd
00000030: b1fa b7bd 5728 bbbd 3ece 4fbd d3c5 52bd
00000040: 1904 aebd 653f 9ebd 9937 cb3d ab03 f7bc
00000050: d6f9 c73d efd2 c6bc 764b 553d acbc e13c
00000060: 8f0f 0ebd dab6 0b3d 57e1 593d 5f14 77bc
00000070: 74ae a3b9 f513 93bd 257a bb3d e669 d03c
00000080: 46df 843c 947e 653d ad05 bb3c b59d d8bc
00000090: 87fc 3d3d 35bc df3a 01eb 14bd 348c 333c
000000a0: ad3e 633d 01bd b7bd d2a7 883b 3e7a a23c
000000b0: 02f6 9a3d 0173 b43d 356c 40bd 1eec 6a3c
000000c0: ccde 7b3c c702 5ebd dd39 81bd 32c3 da3d
000000d0: 486d 553d d78a 31bd 6af7 ab3d a31f 943d
000000e0: 1089 d1bc f53a c2bc bead bf3c fb66 383d
000000f0: 0264 1ebd 362a 153d dbc3 b2bc 99b5 abbd
00000100: 7730 b1bd e03a 013c e30d babc 2f63 a13c
00000110: 2385 e2bc 3863 463d c1cf a03d 4b3e 853c
00000120: a0c5 5cb9 1e06 813d 0082 39bc a8ba 8bbd
00000130: a896 77bd 92d9 95bc 51cc 64bd d04b 273d
00000140: 7419 ba3d 7375 683c 8058 653d 5e0d 78bd
00000150: 3778 92bc bebd 9a3d 3e87 41bc c78a a83d
00000160: f7cd 26bd fb15 8cbd a1a2 d73d e7f9 bbbc
00000170: e4bc 87bd b9a7 44bc 339b 9e3d 32c4 863c
00000180: d65c 973d 2f6d a3bc 6c00 703c 33a3 06bd
00000190: d9fc 74bd 2683 6ebd 53df a03d 9a9f 94bc
000001a0: 0b9d 653c 0669 b43d 5761 3dbd 3cf8 0dbd
000001b0: 344b 68bd 62bf 7cbd 6455 0c3d 5083 d0bd
000001c0: 022d cf3d 2e3d 833c 786f c3bc a21d 4cbc
000001d0: 5317 863c e8b5 acbc 508a 5a3d 48f2 b8bd
000001e0: d6ad 38bd 041c 03bd 15f8 5ebd 60db 30bd
000001f0: 9dff 7dbd 3379 9e3c 529d 273c 1f51 6cbd

net.3.weight f4 [64, 128]
0.042299476 -0.009383477 0.06950133 -0.03866272 0.076001115 -0.074770145 0.023882926 0.035268817
0.03644545 0.05082634 -0.07283465 -0.0070937686 0.07720808 -0.005061629 0.07385195 -0.07109952
-0.040879596 -0.08848239 -0.045263514 -0.099595584 0.04401364 0.04717265 -0.0837358 -0.043416895
-0.021260653 0.0020836163 -0.036900833 -0.05301145 -0.0600575 -0.04002566 0.09659149 -0.11945342
-0.057185113 0.05447661 -0.02584389 0.025868401 0.05596424 -0.0050906204 0.08975796 -0.010542242
-0.052892666 0.03886573 0.012680215 -0.10631134 0.015490068 0.014188975 0.051688135 -0.030037044
0.013679865 -0.036337405 -0.031815846 0.016015446 0.07183321 -0.020915031 -0.012205921 -0.0230282
-0.016372137 0.014587505 0.04012377 0.07474528 0.05360573 0.08633412 -0.0030321653 0.036693275
0.066946745 0.030575497 0.009697491 -0.011893998 0.05953361 0.05566844 0.0352882 -0.07064862
0.03596308 0.059646573 0.08292196 -0.003480661 0.048359785 0.05581143 0.07307238 0.040357146
0.030757919 0.07947675 -0.017618753 -0.032329515 -0.078118354 -0.025164392 0.064810865 -0.072077334
-0.02897906 -0.03871498 -0.046798605 -0.065930486 0.03326635 -0.038470503 0.010984196 0.08300676
-0.026531013 -0.017378539 0.03366525 0.059099857 -0.061900705 0.029412698 -0.08024235 -0.057762
-0.07150712 0.07965147 0.07703283 -0.12814695 0.0040349 0.006855488 0.11658635 -0.043738503
-0.0073038833 0.09371868 -0.048997343 -0.009093433 0.042499565 -0.06710925 -0.058295935 0.06283258
0.013667778 0.045394327 -0.013105001 -0.044438228 -0.024837269 -0.07146427 -0.09467615 -0.061316475
0.0023639721 -0.039460253 -0.060529202 -0.019456754 0.012526659 0.027385844 0.10852244 -0.08873973
-0.07116666 -0.0048120418 -0.02571699 0.03766075 0.0051035923 0.08455364 0.032561086 0.011817239
0.044829864 -0.032856222 -0.005587417 0.02033783 -0.066620655 -0.009787683 -0.048244774 -0.008943932
-0.039800636 0.005026761 0.08977678 0.06843953 -0.0020982164 0.0754055 -0.054009 -0.12123954
-0.11817242 0.057317235 -0.08192645 0.0281246 -0.031034522 -0.08078293 0.058839753 0.045718115
-0.011501647 -0.0015286324 -0.0416993 -0.07372476 -0.041728955 0.005764374 -0.016134713 0.0016570654
0.039813492 -0.060555845 -0.06668605 -0.06012409 0.08376702 0.08084236 0.05084393 0.071152695
-0.09567303 -0.017158447 0.033810627 0.08517165 0.040504232 -0.043389414 0.02361803 -0.0463222
0.109128736 0.06761504 -0.019839536 0.03315816 -0.06499866 -0.08454817 0.06759048 -0.05653939
-0.10360592 -0.03714413 0.06739357 0.07162353 -0.006673077 -0.02027579 -0.01667631 -0.035141613
0.052273054 -0.015206881 -0.096433595 -0.060013022 0.03990625 0.057043213 -0.059975993 0.06513502
0.055899724 0.09631031 0.10590367 0.06855637 -0.06998913 -0.040309556 0.03834658 -0.03824613
0.03921693 -0.003317005 -0.044771444 -0.0013474711 -0.05936688 0.044694275 -0.08971767 -0.0013235096
0.039856523 0.09230895 0.026709963 -0.09711646 -0.029643916 0.05842807 0.06928656 0.029958276
-0.016778925 0.0646029 0.075247884 -0.064462535 0.022389738 -0.01761945 0.053240485 -0.08753536
0.019001096 0.071733326 -0.01918667 -0.028409895 -0.018932518 0.05936306 -0.006583318 0.025281325
00000000: 3742 2d3d 28bd 19bc b756 8e3d cd5c 1ebd
00000010: 79a6 9b3d 1721 99bd 20a6 c33c 0976 103d
00000020: d347 153d 482f 503d 552a 95bd d872 e8bb
00000030: 451f 9e3d 06dc a5bb b13f 973d a09c 91bd
00000040: 5d71 27bd 4136 b5bd 3c66 39bd c5f8 cbbd
00000050: a647 343d 1c38 413d ad7d abbd ead5 31bd
00000060: d22a aebc 488d 083b 5425 17bd 8922 59bd
00000070: dafe 75bd f2f1 23bd c2d1 c53d ffa3 f4bd
00000080: f03a 6abd de22 5f3d 91b6 d3bc f8e9 d33c
00000090: c23a 653d 38cf a6bb 05d3 b73d 5eb9 2cbc
000000a0: fba5 58bd ac31 1f3d adc0 4f3c c3b9 d9bd
000000b0: 0eca 7d3c e078 683c f0b6 533d 3f10 f6bc
000000c0: 8321 603c 88d6 14bd 5551 02bd d332 833c
000000d0: 4a1d 933d 0056 abbc 58fb 47bc a3a5 bcbc
000000e0: dc1e 86bc 6e00 6f3c d258 243d 0e14 993d
000000f0: af91 5b3d f1cf b03d 4bb7 46bb b04b 163d
00000100: 601b 893d 7779 fa3c 3ae2 1e3c 0bdf 42bc
00000110: 84d9 733d 9704 643d 5c8a 103d 39b0 90bd
00000120: 064e 133d f74f 743d fdd2 a93d cd1b 64bb
00000130: e914 463d 879a 643d f9a6 953d 894d 253d
00000140: 08f8 fb3c b5c4 a23d 3455 90bc f46b 04bd
00000150: 84fc 9fbd 8e25 cebc 8fbb 843d 489d 93bd
00000160: 7e65 edbc 9993 1ebd e5af 3fbd 9006 87bd
00000170: 4c42 083d 3f93 1dbd 0ff7 333c 73ff a93d
00000180: 9157 d9bc 705d 8ebc 93e4 093d b112 723d
00000190: 988b 7dbd e6f2 f03c 1a56 a4bd d997 6cbd
000001a0: 5372 92bd 4f20 a33d 63c3 9d3d f438 03be
000001b0: 3237 843b 00a4 e03b d3c4 ee3d 2527 33bd
000001c0: 6a55 efbb 94ef bf3d 70b1 48bd 9ffc 14bc
000001d0: 0614 2e3d 9370 89bd b8c7 6ebd 5eae 803d
000001e0: d1ee 5f3c 67ef 393d 5cb6 56bc dc04 36bd
000001f0: 8777 cbbc dc5b 92bd 92e5 c1bd fc26 7bbd
00000200: dfec 1a3b 13a1 21bd 78ed 77bd c563 9fbc
00000210: 9e3c 4d3c 4758 e03c 0341 de3d 2dbd b5bd
00000220: d3bf 91bd 55ae 9dbb 70ac d2bc 2942 1a3d
00000230: 093c a73b 752a ad3d c65e 053d 189d 413c
00000240: 859f 373d 3f94 06bd a716 b7bb 859b a63c
00000250: 6970 88bd 855c 20bc 509c 45bd 9289 12bc
00000260: fe05 23bd 87b7 a43b e3dc b73d 062a 8c3d
00000270: 3b82 09bb 336e 9a3d 8b38 5dbd 704c f8bd
00000280: 6204 f2bd 7ac5 6a3d 0ec9 a7bd 9065 e63c
00000290: 1c3c febc 8571 a5bd f401 713d eb42 3b3d
000002a0: 6771 3cbc 645c c8ba e3cc 2abd 02fd 96bd
000002b0: fbeb 2abd 13e3 bc3b f22c 84bc e331 d93a
000002c0: 7913 233d 6809 78bd b292 88bd ae44 76bd
000002d0: 0b8e ab3d ae90 a53d ba41 503d 81b8 913d
000002e0: 39f0 c3bd df8f 8cbc 037d 0a3d 796e ae3d
000002f0: c4e7 253d 19b9 31bd 997a c13c 59bc 3dbd
00000300: e37e df3d c179 8a3d 8686 a2bc dad0 073d
00000310: 041e 85bd 9727 adbd e16c 8a3d d995 67bd
00000320: 572f d4bd 7124 18bd a405 8a3d 5baf 923d
00000330: d4a9 dabb 6a19 a6bc c29c 88bc a7f0 0fbd
00000340: 451c 563d 4826 79bc fa7e c5bd 37d0 75bd
00000350: bc74 233d 25a6 693d 63a9 75bd 8265 853d
00000360: 1cf7 643d 573e c53d 06e4 d83d 4867 8c3d
00000370: 7656 8fbd a21b 25bd 4e11 1d3d f9a7 1cbd
00000380: eea1 203d 1c62 59bb 4362 37bd a19d b0ba
00000390: b02a 73bd 5811 373d e6bd b7bd 9d79 adba
000003a0: 9840 233d 7a0c bd3d dace da3c ffe4 c6bd
000003b0: ccd7 f2bc 4652 6f3d 1de6 8d3d 0f6b f53c
000003c0: f573 89bc 864e 843d 901b 9a3d ef04 84bd
000003d0: af6a b73c aa56 90bc b212 5a3d bd45 b3bd
000003e0: 30a8 9b3c ece8 923d 5d2d 9dbc debb e8bc
000003f0: 5e18 9bbc ae26 733d e0b8 d7bb c81a cf3c

net.3.bias f4 [64]
-0.046799224 -0.059047837 0.06642211 -0.032226846 -0.013840069 -0.013161974 0.002053048 0.025149338
0.029436383 -0.023721874 -0.051694278 0.058467165 -0.031607214 -0.0017743346 -0.03528323 -0.062711224
0.0850423 0.11970002 -0.06522638 0.037064135 0.07287967 0.023571657 -0.067677744 0.009101673
-0.014954999 -0.09057672 0.028907187 -0.030188965 -0.0833119 -0.04452885 0.09620366 0.0006491986
-0.06792409 0.06281329 -0.013167767 -0.00014971592 0.056054793 0.088358924 -0.032780834 -0.01995316
-0.04883623 -0.007855498 0.056521222 0.063911796 -0.008457036 -0.06901787 0.036986765 0.10153103
-0.073860876 0.016817609 0.07565023 0.024318384 -0.013261179 0.072730616 -0.023779713 -0.031135984
0.02478291 -0.055944584 -0.046386223 -0.04814598 0.07693692 -0.015927423 -0.015259041 0.054143317
00000000: 8bb0 3fbd 25dc 71bd 5108 883d 4c00 04bd
00000010: 75c1 62bc 52a5 57bc 6e8c 063b fc05 ce3c
00000020: 9224 f13c 6054 c2bc 61bd 53bd 447b 6f3d
00000030: 9176 01bd ca90 e8ba 2685 10bd be6e 80bd
00000040: a82a ae3d 4925 f53d 6995 85bd 90d0 173d
00000050: f041 953d 5919 c13c a19a 8abd 2f1f 153c
00000060: d005 75bc 4a80 b9bd c4ce ec3c d94e f7bc
00000070: 6e9f aabd e263 36bd 6d06 c53d fb2e 2a3a
00000080: c91b 8bbd 41a4 803d 9ebd 57bc 10fd 1cb9
00000090: b699 653d 86f5 b43d 3245 06bd cf74 a3bc
000000a0: 8008 48bd 59b4 00bc cc82 673d 30e4 823d
000000b0: 618f 0abc 3e59 8dbd 6f7f 173d 80ef cf3d
000000c0: 5f44 97bd 15c5 893c 82ee 9a3d 5937 c73c
000000d0: 6b45 59bc caf3 943d accd c2bc e410 ffbc
000000e0: 8705 cb3c 2626 65bd 7bff 3dbd b834 45bd
000000f0: 1b91 9d3d 3a7a 82bc 0f01 7abc 62c5 5d3d

net.6.weight f4 [1, 64]
0.06364123 0.0573834 -0.119456194 -0.15847324 -0.111380175 -0.034323275 0.10140951 0.1385061
-0.012268225 0.10564062 -0.066908486 -0.09803421 -0.027758393 0.114631295 0.10418203 -0.12583637
-0.13636866 0.11339601 0.021363644 0.054567497 0.12546568 0.12187186 0.13004039 -0.108032025
0.043835238 -0.117921986 0.09965455 0.022162545 -0.12099258 0.041740432 -0.12789893 -0.08704048
0.05988666 -0.13784575 0.04919489 -0.020112244 0.046940763 0.080119334 0.06915536 0.10971489
0.104222484 -0.1387626 -0.09625485 -0.10152015 -0.0042764 -0.056056317 -0.045257162 0.08857088
-0.116190195 0.13942221 0.11014855 -0.059465583 0.082018055 -0.049422823 0.07393972 0.104575865
-0.07140318 -0.14572255 0.09834398 0.058163024 0.052941963 0.039351575 -0.111911654 -0.07261539
00000000: 5556 823d db0a 6b3d 73a5 f4bd cf46 22be
00000010: 4a1b e4bd 9096 0cbd caaf cf3d 8bd4 0d3e
00000020: aa00 49bc 1c5a d83d 5107 89bd 29c6 c8bd
00000030: 9265 e3bc d0c3 ea3d 635d d53d 40db 00be
00000040: 3aa4 0bbe 2b3c e83d cf02 af3c 2b82 5f3d
00000050: 137a 003e f497 f93d 4f29 053e e53f ddbd
00000060: 948c 333d 1581 f1bd af17 cc3d 3a8e b53c
00000070: f5ca f7bd 04f8 2a3d f0f7 02be 4742 b2bd
00000080: b74b 753d 7027 0dbe 9580 493d 6fc2 a4bc
00000090: f544 403d 9b15 a43d 53a1 8d3d 33b2 e03d
000000a0: 9972 d53d c817 0ebe 4321 c5bd cce9 cfbd
000000b0: 0b21 8cbb 4f9b 65bd 935f 39bd a664 b53d
000000c0: 20f5 edbd b2c4 0e3e 9095 e13d 2f92 73bd
000000d0: 15f9 a73d 966f 4abd b56d 973d df2b d63d
000000e0: d53b 92bd 4b38 15be 9268 c93d 5a3c 6e3d
000000f0: acd9 583d 1e2f 213d f031 e5bd 61b7 94bd
