backend/backend/luma_model.pth (torch, 89721 bytes, 5 tensors)

net.0.weight f4 [128, 103]
0.08246952 0.0922093 -0.0224408 0.08664474 -0.013565685 0.023623738 -0.04389983 0.06101499
0.092872575 -0.06551277 0.09683671 0.020689603 0.089185245 0.014059352 0.052290518 -0.004907895
0.08772012 0.01260204 -0.0352527 0.021680659 -0.031271666 -0.022739466 -0.031388756 0.070852734
-0.06921699 -0.04076302 -0.0229183 -0.05502372 0.0142730605 -0.092724964 0.09015637 -0.076474905
0.08258591 0.027877048 -0.023828287 0.06779436 0.02128597 0.09237002 0.014880556 -0.028687632
0.034103498 -0.01806771 0.036823984 0.07258207 0.06408988 -0.04820968 0.06456832 0.019876366
0.051943894 -0.055911608 -0.09458743 -0.033805188 -0.06639665 0.087345034 0.03127564 0.025362857
0.03923949 -0.0041945656 0.07145196 -0.07794902 0.009001127 -0.0864713 0.029859813 -0.02304993
0.030536273 -0.012307684 0.094897114 -0.07630331 -0.058152296 -0.06759955 0.093717664 0.023081547
0.09544385 -0.07456656 -0.08856614 -0.07622786 -0.056984358 0.04487531 0.046526864 0.08364712
-0.050196383 -0.055299047 0.05287405 -0.036996055 0.07044612 -0.008110685 0.06099808 -0.07220242
-0.039088715 0.037382707 0.037726294 -0.019916875 0.06492629 0.059747558 -0.063726775 -0.047302213
0.09390431 -0.0232036 -0.020741556 -0.093240894 -0.03355456 0.047687747 0.014404656 -0.060715005
0.004016119 -0.055996146 -0.08228888 -0.043925036 -0.084314704 -0.05061683 0.09945257 0.02781753
0.031103881 -0.08284224 -0.06311754 -0.02287857 0.014121064 -0.07577739 -0.043106463 -0.047771502
0.0009314719 -0.027249139 -0.009052541 -0.055699255 -0.06810269 -0.04862905 -0.031534273 -0.062894166
0.08186702 -0.0038023328 0.084986106 0.040913146 -0.08193066 0.0816442 -0.02839379 -0.021606026
-0.08033723 -0.08339668 0.03193422 -0.007928091 0.03863765 -0.06746398 0.07296154 -0.059585653
-0.017693574 0.032980137 0.042230267 0.087578274 0.089697964 -0.06510878 0.020297866 -0.031429555
-0.014525361 -0.06765829 0.08586112 -0.059771445 0.049850747 0.042500578 0.030243767 -0.043493807
0.08522274 0.02712592 0.01234527 -0.07557924 0.034794755 -0.0015396805 -0.047308166 0.09617749
0.02301123 -0.043097075 -0.049120624 0.0075815376 0.04942548 -0.01772587 -0.055316336 -0.020482287
-0.070763245 0.046030875 0.07683934 -0.077212945 0.022428185 0.062145162 0.019334935 -0.019630698
0.050071854 0.058739956 0.034872834 -0.004538115 -0.022655267 0.02530132 -0.015960857 -0.022548689
0.0610164 0.09148823 -0.009151625 -0.01114743 -0.00042995112 0.0021383774 0.022207001 0.03678193
-0.08877452 -0.023992771 0.08213112 0.032538995 -0.010685744 -0.060430996 -0.061321996 -0.09959067
-0.032973897 0.017645877 0.06060505 0.032134976 -0.08647917 -0.074759305 -0.011914058 0.08175208
0.013264891 -0.03913748 0.04656149 -0.05105307 -0.053597465 0.06687371 -0.03912305 -0.03496464
-0.09368777 0.04992021 0.078903444 0.01722334 -0.065471046 -0.106423154 -0.08313621 0.062363006
0.041241523 0.07207451 0.05040488 0.014752257 -0.0050156782 -0.08370131 -0.089682765 -0.10158088
0.03924038 -0.060245775 -0.019323086 -0.06238183 -0.01453511 -0.08326675 -0.06348474 0.020017114
-0.026016666 0.043900464 -0.02618214 -0.08571453 -0.016596084 -0.060142294 -0.022295862 -0.103046834
00000000: c8e5 a83d 3bd8 bc3d c5d5 b7bc cc72 b13d
00000010: 9b42 5ebc 9286 c13c 4fd0 33bd dbea 793d
00000020: fa33 be3d 8f2b 86bd 5352 c63d 3e7d a93c
00000030: c1a6 b63d 3259 663c 952e 563d 68d2 a0bb
00000040: 9ba6 b33d c978 4e3c 2365 10bd a39b b13c
00000050: b816 00bd 1e48 babc 7f91 00bd 3d1b 913d
00000060: a3c1 8dbd 20f7 26bd 29bf bbbc 8d60 61bd
00000070: 8ed9 693c 96e6 bdbd e7a3 b83d e09e 9cbd
00000080: cd22 a93d 685e e43c 8a33 c3bc c5d7 8a3d
00000090: ea5f ae3c 7e2c bd3d 93cd 733c 5302 ebbc
000000a0: 1cb0 0b3d bc02 94bc bfd4 163d e9a5 943d
000000b0: 8e41 833d 8377 45bd 653c 843d c3d3 a23c
000000c0: 1fc3 543d 9203 65bd 0eb7 c1bd 4f77 0abd
000000d0: f8fa 87bd f4e1 b23d e31a 003d c4c5 cf3c
000000e0: 96b9 203d 9172 89bb 6855 923d bca3 9fbd
000000f0: 7779 133c dd17 b1bd 919c f43c 35d3 bcbc
00000100: 3527 fa3c 2ba6 49bc 6b59 c23d e944 9cbd
00000110: 1a31 6ebd a271 8abd 0cef bf3d 8315 bd3c
00000120: 1178 c33d 5ab6 98bd 2a62 b5bd 5a1d 9cbd
00000130: 6e68 69bd 2ccf 373d f492 3e3d 2e4f ab3d
00000140: b99a 4dbd 4181 62bd 7692 583d 2d89 17bd
00000150: 0e46 903d aee2 04bc 1fd9 793d ddde 93bd
00000160: 7d1b 20bd 9c1e 193d e386 1a3d b728 a3bc
00000170: 13f8 843d dbb9 743d 2f83 82bd f7bf 41bd
00000180: e750 c03d 7a15 bebc 32ea a9bc 15f5 bebd
00000190: 8270 09bd 3a54 433d 8201 6c3c 4cb0 78bd
000001a0: a699 833b 375c 65bd 1387 a8bd bdea 33bd
000001b0: 30ad acbd 9853 4fbd caad cb3d 97e1 e33c
000001c0: 91cd fe3c 31a9 a9bd c543 81bd d76b bbbc
000001d0: 095c 673c 2d31 9bbd 6790 30bd 0dac 43bd
000001e0: 052e 743a 9639 dfbc 1c51 14bc e724 64bd
000001f0: 6c79 8bbd 412f 47bd 152a 01bd a8ce 80bd
00000200: e5a9 a73d 8f30 79bb 320d ae3d 8b94 273d
00000210: 43cb a7bd 1335 a73d 189a e8bc 1fff b0bc
00000220: d887 a4bd e1cb aabd 75cd 023d d3e4 01bc
00000230: 8342 1e3d 8e2a 8abd dc6c 953d 1610 74bd
00000240: 1df2 90bc 2e16 073d a5f9 2c3d 3d5c b33d
00000250: 91b3 b73d c157 85bd b647 a63c 47bc 00bd
00000260: c8fb 6dbc 6e90 8abd f4d7 af3d e7d2 74bd
00000270: 4c30 4c3d 1615 2e3d c7c1 f73c 9026 32bd
00000280: 4389 ae3d 2d37 de3c d143 4a3c 4ac9 9abd
00000290: f284 0e3d 1bcf c9ba 35c6 41bd b4f8 c43d
000002a0: 0c82 bc3c 8f86 30bd b532 49bd 8c6e f83b
000002b0: 5f72 4a3d d835 91bc 6293 62bd 78ca a7bc
000002c0: 52ec 90bd df8a 3c3d f25d 9d3d d221 9ebd
000002d0: 50bb b73c ed8b 7e3d 4c64 9e3c 8fd0 a0bc
000002e0: 2518 4d3d 4f99 703d d1d6 0e3d 78b4 94bb
000002f0: 8a97 b9bc b744 cf3c 58c0 82bc 07b8 b8bc
00000300: 55ec 793d 2e5e bb3d b3f0 15bc b6a3 36bc
00000310: 106b e1b9 0524 0c3b 75eb b53c a6a8 163d
00000320: 6acf b5bd 7d8c c4bc 5c34 a83d 9c47 053d
00000330: 4213 2fbc 7e86 77bd c62c 7bbd 31f6 cbbd
00000340: a30f 07bd 168e 903c 003d 783d f79f 033d
00000350: fe1b b1bd 681b 99bd 2e33 43bc a26d a73d
00000360: fc54 593c 9f4e 20bd 43b7 3e3d 061d 51bd
00000370: 0489 5bbd 15f5 883d 7e3f 20bd 1537 0fbd
00000380: 60df bfbd 2279 4c3d 2198 a13d f617 8d3c
00000390: af15 86bd 62f4 d9bd 5143 aabd 5a70 7f3d
000003a0: dfec 283d cd9b 933d 5975 4e3d 73b3 713c
000003b0: 8f5a a4bb 986b abbd 99ab b7bd a309 d0bd
000003c0: 85ba 203d 46c4 76bd 734b 9ebc 1784 7fbd
000003d0: ac24 6ebc c287 aabd 4a04 82bd eefa a33c
000003e0: e720 d5bc f9d0 333d ed7b d6bc 198b afbd
000003f0: 83f4 87bc c457 76bd d0a5 b6bc 380a d3bd

net.0.bias f4 [128]
-0.02273127 0.034229573 0.052263793 0.03650922 0.04515965 0.09372866 0.039818548 0.039772052
-0.071403235 0.0070216064 0.007009072 0.09181223 0.047051884 0.057919778 0.076718114 -0.031814847
0.029492188 0.105445586 0.021516802 0.074884064 0.05213499 -0.0047282963 0.024531642 -0.0517253
0.09041308 0.024581494 0.06649502 -0.07817654 -0.09843921 0.034069866 0.008440563 -0.04701018
0.049897444 -0.07596151 0.09412036 -0.085281715 0.029280834 -0.06830825 0.023224954 0.09558916
-0.00297278 0.041034408 -0.029853135 -0.033446588 -0.09539819 0.06691526 0.020900542 0.039501112
-0.07868461 -0.07938175 -0.07165707 -0.06065854 0.0015078287 -0.0071877316 0.03566362 -0.041538928
0.092920244 -0.03531682 -0.09081848 0.07945939 -0.04557393 0.009448254 -0.0013403598 -0.011149265
-0.004547612 -0.08105905 0.085999206 -0.05227984 0.045950685 -0.04938526 -0.024888655 0.00050908
-0.025271377 -0.038971823 -0.076468855 -0.060972765 0.013571328 -0.051976953 -0.015607623 0.024197053
-0.011290783 -0.080075525 -0.02866224 0.04939281 0.03945863 0.069396175 0.030808358 0.06302516
-0.089655615 -0.08398454 -0.023399724 -0.013437153 0.07265417 -0.075910896 -0.078732945 -0.008395987
0.035032883 -0.07331988 -0.025024828 -0.0782271 0.03957463 0.035408057 -0.077176824 -0.07030947
0.0075842477 -0.019120187 -0.05973623 -0.027625585 -0.09708249 -0.020052496 0.0118890805 -0.0034621703
0.01696025 -0.028617812 0.0957105 -0.013264181 0.056269333 0.028344588 -0.02179737 -0.07387304
-0.067633286 0.051133648 0.039335735 0.0643723 -0.053107165 0.06752655 0.09685841 0.0062093586
00000000: ee36 babc 4f34 0c3d 8f12 563d b18a 153d
00000010: 53f9 383d d0f4 bf3d c618 233d 05e8 223d
00000020: dc3b 92bd 8115 e63b 5cac e53b 0d08 bc3d
00000030: 7ab9 403d 4a3d 6d3d 631e 9d3d 4950 02bd
00000040: 9a99 f13c dbf3 d73d 0144 b03c d15c 993d
00000050: 808b 553d d3ef 9abb 95f6 c83c e8dd 53bd
00000060: 7e2a b93d 215f c93c 8b2e 883d 061b a0bd
00000070: 7f9a c9bd d88c 0b3d 4a4a 0a3c bf8d 40bd
00000080: 4361 4c3d b591 9bbd 2dc2 c03d 2ea8 aebd
00000090: 5cde ef3c 32e5 8bbd 4242 be3c 40c4 c33d
000000a0: f9d2 42bb b213 283d 908e f4bc 4aff 08bd
000000b0: 2060 c3bd de0a 893d 9d37 ab3c ebcb 213d
000000c0: 6625 a1bd e692 a2bd f1c0 92bd 1775 78bd
000000d0: 56a2 c53a 1087 ebbb 0414 123d b924 2abd
000000e0: f84c be3d 5fa8 10bd 0aff b9bd 9bbb a23d
000000f0: bbab 3abd d9cc 1a3c 03af afba 68ab 36bc
00000100: 2204 95bb 4a02 a6bd 5a20 b03d 6323 56bd
00000110: c936 3c3d 3348 4abd 4be3 cbbc c873 053a
00000120: eb05 cfbc eba0 1fbd b49b 9cbd 94be 79bd
00000130: 465a 5e3c c9e5 54bd 1eb7 7fbc e638 c63c
00000140: fafc 38bc a3fe a3bd 13cd eabc 1d50 4a3d
00000150: 5f9f 213d 951f 8e3d cf61 fc3c 5613 813d
00000160: 5d9d b7bd 1600 acbd c7b0 bfbc 8127 5cbc
00000170: b6cb 943d 2c77 9bbd bd3e a1bd 528f 09bc
00000180: a47e 0f3d bc28 96bd de00 cdbc 8835 a0bd
00000190: 0219 223d 0a08 113d e20e 9ebd 69fe 8fbd
000001a0: 4885 f83b f0a1 9cbc faad 74bd 0d4f e2bc
000001b0: 2fd3 c6bd 2245 a4bc 6bca 423c 94e5 62bb
000001c0: 39f0 8a3c e76f eabc de03 c43d 0252 59bc
000001d0: ac7a 663d e932 e83c 6690 b2bc c04a 97bd
000001e0: 5283 8abd 8471 513d 821e 213d a0d5 833d
000001f0: e686 59bd 5c4b 8a3d b45d c63d e077 cb3b

net.3.weight f4 [64, 128]
-0.05000481 -0.011646721 -0.06193826 0.06797718 -0.00040758954 0.035610463 0.08102607 -0.045399915
-0.008702654 0.09062593 -0.052073307 0.06583837 0.04557901 -0.023330135 -0.09135172 0.06703262
0.029152386 -0.05254806 0.06621208 0.04479222 0.075688 0.060359187 0.011488169 -0.05990888
0.06750824 0.098536424 -0.027792301 -0.006491519 -0.0013293172 -0.024493007 0.07297319 0.0075185257
-0.07401256 0.044641394 -0.036650416 0.05336239 0.016084041 -0.056752257 0.05573513 -0.011037651
-0.01466087 0.07656913 0.08117358 0.0688506 -0.042823922 -0.07373969 -0.06252492 0.03335527
0.04540612 -0.055567335 0.014215788 0.024074016 -0.054439142 -0.018943392 -0.04200328 -0.03507643
0.014416173 0.0051751626 -0.06703181 0.0068125124 -0.0006156516 -0.061972346 -0.09283072 -0.0079351
-0.07231783 -0.0335592 0.011863657 0.0031061077 -0.04102115 -0.0025030393 0.029404845 -0.024679461
-0.040355016 0.040302586 0.012534272 0.051034484 0.07685513 -0.015254561 0.027518326 -0.056504194
0.010267741 0.08741925 -0.0763981 -0.037120022 -0.07045861 0.10184147 0.011228125 0.08449629
-0.044429354 -0.026748091 0.042573463 -0.07746772 -0.0909553 -0.05984829 0.016925674 -0.083791986
0.035375196 0.08728918 -0.03254751 -0.0034208763 -0.06539093 -0.034683656 0.0036404382 0.00887535
-0.039188184 -0.06294427 -0.019944992 0.047200684 -0.043146577 0.004635771 0.005430202 -0.038882967
-0.014577384 0.063401975 0.07389397 -0.04302922 -0.027027568 -0.048897784 -0.039898634 -0.024393808
0.08494487 0.030292645 -0.050250724 -0.0019391108 -0.074998975 0.06642425 0.021268804 -0.007962674
0.053011972 -0.09961465 -0.041204795 -0.011525977 0.07390538 0.09356368 -0.020913996 -0.078796476
0.008123225 -0.06378616 0.07065455 -0.0010316415 -0.011426741 -0.0030432167 0.09051534 0.022230798
-0.044794947 0.04418551 0.03571222 -0.042671084 0.039186563 -0.08298783 -0.055773944 0.034727626
0.093487665 0.0053981915 -0.039802697 0.046005987 -0.056436863 -0.04366786 -0.061167244 -0.01168537
0.020643216 0.0025201612 0.068322554 -0.026754199 0.09165122 -0.04189539 -0.049124405 0.024156874
0.052120373 0.025055928 0.06659837 -0.058632698 0.06385882 0.046233114 0.00622737 0.014082823
-0.052792013 0.047157366 0.036904495 0.06133508 0.08655852 -0.0705775 0.07208042 -0.00652343
-0.038323242 0.09564163 -0.022968665 0.04008461 -0.0069793784 -0.03349822 0.07455173 0.050003335
0.08940719 -0.03504037 -0.0524433 0.013687941 -0.019940687 -0.003735115 -0.049908895 0.10155995
-0.034084182 -0.032050353 0.021776175 -0.047285497 0.041397925 -0.055665124 -0.019801088 -0.033756565
0.051117282 -0.066713706 0.06496699 -0.085628085 -0.09476517 -0.018104462 -0.09431431 0.07857634
0.06489845 -0.023580741 0.08885868 -0.023035876 0.02871285 -0.07201505 0.006827042 -0.03327369
-0.0002758996 0.012174803 -0.066305116 -0.010259894 0.04661801 0.09004231 0.030840853 0.015880557
0.08224103 0.031021683 -0.067562394 0.015785012 -0.099840075 0.0006523584 -0.012574999 -0.05706136
0.029473476 0.06830358 -0.049537335 -0.053755768 -0.024369935 0.015574972 -0.09559289 -0.02497957
0.05737927 -0.09291221 -0.04108933 -0.02126458 0.035297442 -0.021728413 0.06847496 -0.0583445
00000000: d8d1 4cbd e3d1 3ebc f9b2 7dbd 9f37 8b3d
00000010: beb1 d5b9 47dc 113d fff0 a53d 43f5 39bd
00000020: 9495 0ebc 169a b93d d24a 55bd 44d6 863d
00000030: 0eb1 3a3d d71e bfbc 9c16 bbbd 6648 893d
00000040: fcd0 ee3c a23c 57bd 339a 873d 0c78 373d
00000050: 4f02 9b3d 323b 773d e038 3c3c 0463 75bd
00000060: c341 8a3d 77cd c93d aeac e3bc cfb6 d4bb
00000070: 7c3c aeba 8fa5 c8bc f872 953d f75d f63b
00000080: e693 97bd e5d9 363d bf1e 16bd 8592 5a3d
00000090: aec2 833c 0e75 68bd 854a 643d 44d7 34bc
000000a0: 2534 70bc 47d0 9c3d 553e a63d 8b01 8d3d
000000b0: 2368 2fbd d604 97bd 110d 80bd 899f 083d
000000c0: c5fb 393d 939a 63bd 56e9 683c df36 c53c
000000d0: 94fb 5ebd 2c2f 9bbc a20b 2cbd 4dac 0fbd
000000e0: d031 6c3c 6994 a93b f947 89bd 7f3b df3b
000000f0: ae63 21ba b7d6 7dbd 081e bebd 3902 02bc
00000100: 5f1b 94bd 5f75 09bd c95f 423c d78f 4b3b
00000110: cb05 28bd 080a 24bb 6ee2 f03c 952c cabc
00000120: 4d4b 25bd 5314 253d 8c5c 4d3c 8909 513d
00000130: 3966 9d3d 44ee 79bc 1d6e e13c f170 67bd
00000140: 073a 283c dd08 b33d 9b76 9cbd 2a0b 18bd
00000150: 9b4c 90bd 4392 d03d 2bf6 373c 640c ad3d
00000160: 8efb 35bd d01e dbbc 8361 2e3d 65a7 9ebd
00000170: c646 babd 7b23 75bd b6a7 8a3c 229b abbd
00000180: 95e5 103d abc4 b23d 8a50 05bd c830 60bb
00000190: aeeb 85bd 7310 0ebd 6b94 6e3b ea69 113c
000001a0: ca83 20bd ede8 80bd ae63 a3bc 8155 413d
000001b0: 77ba 30bd aae7 973b d6ef b13b bf43 1fbd
000001c0: fbd5 6ebc e5d8 813d b955 973d 683f 30bd
000001d0: eb68 ddbc 0b49 48bd c06c 23bd 86d5 c7bc
000001e0: 93f7 ad3d 4828 f83c b4d3 4dbd c329 feba
000001f0: 1099 99bd 7009 883d ea3b ae3c e075 02bc
00000200: 1523 593d c402 ccbd 5cc6 28bd 74d7 3cbc
00000210: b45b 973d 519e bf3d d453 abbc 0c60 a1bd
00000220: 4617 053c 51a2 82bd 55b3 903d 2538 87ba
00000230: 3a37 3bbc b470 47bb 1b60 b93d 5d1d b63c
00000240: e87a 37bd defb 343d fa46 123d e0c7 2ebd
00000250: 1782 203d 86f5 a9bd 3873 64bd 8e3e 0e3d
00000260: 7676 bf3d 50e3 b03b 2708 23bd c670 3c3d
00000270: 572a 67bd 12dd 32bd 818a 7abd fe73 3fbc
00000280: f61b a93c 4a29 253b b2ec 8b3d 9f2b dbbc
00000290: a3b3 bb3d 809a 2bbd ac36 49bd a3e4 c53c
000002a0: 2c7c 553d 1742 cd3c ba64 883d d728 70bd
000002b0: 6ac8 823d ef5e 3d3d f70e cc3b a4bb 663c
000002c0: 703c 58bd 1528 413d 2b29 173d 7e3a 7b3d
000002d0: 9845 b13d f08a 90bd e69e 933d 7fc2 d5bb
000002e0: d5f8 1cbd c2df c33d c828 bcbc c32f 243d
000002f0: 45b3 e4bb 6e35 09bd 94ae 983d 4cd0 4c3d
00000300: 1e1b b73d 7e86 0fbd c9ce 56bd 6343 603c
00000310: a75a a3bc d5c8 74bb 456d 4cbd aafe cf3d
00000320: db9b 0bbd 3b47 03bd f363 b23c 70ae 41bd
00000330: df90 293d 1d01 64bd e435 a2bc 5344 0abd
00000340: 5b60 513d 32a1 88bd 6a0d 853d c75d afbd
00000350: 3e14 c2bd cf4f 94bc dc27 c1bd a2ec a03d
00000360: 7be9 843d 662c c1bc 8afb b53d bcb5 bcbc
00000370: 3637 eb3c a07c 93bd 61b5 df3b fe49 08bd
00000380: 9ea6 90b9 d378 473c faca 87bd 1d19 28bc
00000390: 87f2 3e3d 1a68 b83d f5a5 fc3c f117 823c
000003a0: fc6d a83d 2f21 fe3c 275e 8abd 924f 813c
000003b0: f478 ccbd 0803 2b3a 5e07 4ebc 2cb9 69bd
000003c0: 5c72 f13c bfe2 8b3d a9e7 4abd 022f 5cbd
000003d0: 75a3 c7bc 2b2e 7f3c 35c6 c3bd f5a1 ccbc
000003e0: 8706 6b3d c248 bebd 494d 28bd 0e33 aebc
000003f0: 0d94 103d c9ff b1bc 9a3c 8c3d a4fa 6ebd

net.3.bias f4 [64]
0.06671995 0.02094061 0.06384707 0.07687262 0.012479902 0.046468657 0.013061831 0.051138636
0.059551973 0.015836738 -0.067030795 0.029808693 0.069432825 0.026727509 0.03863339 0.017060772
-0.05313601 -0.048368976 -0.0015536958 -0.08031893 0.0113966875 -0.0072471034 -0.047470476 0.028094605
0.0033564568 0.03882455 0.0095896395 -0.01983443 0.0066634826 -0.06963951 0.011846592 0.06566385
0.028365357 0.029351478 0.0910217 0.08022503 0.08353458 0.09237551 0.058741886 0.008390256
-0.06662612 0.012337851 0.056392517 0.0049182605 0.046276595 -0.042911943 0.01856964 0.10600038
-0.09371716 -0.005886239 0.06750892 -0.09739614 -0.017214673 -0.024043085 0.067859195 -0.002075031
0.023378879 0.076923035 0.024780119 -0.03567353 0.03298069 -0.012532716 0.09310964 -0.006718312
00000000: 78a4 883d a48b ab3c 41c2 823d 646f 9d3d
00000010: 8178 4c3c eb55 3e3d 4a01 563c bf76 513d
00000020: c5ec 733d 0cbc 813c 7147 89bd 5c31 f43c
00000030: cc32 8e3d a6f3 da3c 0c3e 1e3d 08c3 8b3c
00000040: 25a5 59bd 8c1e 46bd 61a5 cbba 407e a4bd
00000050: 2cb9 3a3c 1c79 edbb 6770 42bd a826 e63c
00000060: 00f8 5b3b 7e06 1f3d dd1d 1d3c d17b a2bc
00000070: 5859 da3b 299f 8ebd 3518 423c c57a 863d
00000080: 775e e83c 8372 f03c 9669 ba3d 054d a43d
00000090: 2e14 ab3d 5f2f bd3d 559b 703d 4977 093c
000000a0: 4673 88bd b324 4a3c d7fb 663d 5c29 a13b
000000b0: 878c 3d3d 6fc4 2fbd 5c1f 983c ba16 d93d
000000c0: c8ee bfbd 5ae1 c0bb 1e42 8a3d a177 c7bd
000000d0: c905 8dbc 01f6 c4bc c3f9 8a3d 3efd 07bb
000000e0: 1085 bf3c d389 9d3d adff ca3c 681e 12bd
000000f0: c316 073d 0556 4dbc 44b0 be3d 4925 dcbb

net.6.weight f4 [1, 64]
0.13263081 -0.06028717 0.09763994 0.12086698 -0.06777373 -0.036949717 -0.0688942 0.057544775
-0.0459957 0.104691245 -0.0740156 -0.04167724 -0.043389626 0.12264219 0.0640713 -0.012355141
0.053675994 -0.11512754 -0.01852367 0.11549519 -0.045571953 -0.08768922 -0.08392806 0.117200494
0.0044662505 0.034759585 -0.0704839 0.08307099 -0.011441132 0.13778694 0.09205252 -0.124557085
0.12913288 -0.10435415 -0.05675978 0.03854771 -0.108390994 -0.0278668 -0.06424987 -0.039242707
-0.0008290936 -0.024840338 0.051850975 -0.046253588 0.024126664 0.021894705 -0.0646239 -0.13558875
0.052961163 -0.1126334 0.04336485 0.06420505 0.13924992 -0.08095734 0.12823664 -0.09027416
-0.092329085 0.03576292 -0.051345613 -0.0848997 0.03459878 0.12608293 0.097240746 0.06534484
00000000: 5fd0 073e aeef 76bd 73f7 c73d 1b89 f73d
00000010: f4cc 8abd 9658 17bd 6718 8dbd 12b4 6b3d
00000020: fd65 3cbd 5d68 d63d 7e95 97bd c1b5 2abd
00000030: 52b9 31bd d42b fb3d d037 833d 386d 4abc
00000040: 5cdb 5b3d fdc7 ebbd f4be 97bc be88 ec3d
00000050: a8a9 3abd 6896 b3bd 7ae2 abbd d006 f03d
00000060: a059 923b 1160 0e3d dd59 90bd 2021 aa3d
00000070: 9673 3bbc 0518 0d3e 0886 bc3d c917 ffbd
00000080: 693b 043e a1b7 d5bd f17c 68bd 34e4 1d3d
00000090: 19fc ddbd ea48 e4bc 7095 83bd f6bc 20bd
000000a0: 8857 59ba f77d cbbc b061 543d 6774 3dbd
000000b0: 48a5 c53c 865c b33c 8959 84bd c7d7 0abe
000000c0: ceed 583d 57ac e6bd 579f 313d f07d 833d
000000d0: 8897 0e3e f6cc a5bd 7750 033e a9e1 b8bd
000000e0: 0817 bdbd 247c 123d c74f 52bd e5df adbd
000000f0: 73b7 0d3d e21b 013e 2826 c73d 84d3 853d
