backend/backend/luma_model.pth (torch, 89721 bytes, 5 tensors)

net.0.weight f4 [128, 103]
-0.025188273 -0.09366106 0.036010742 0.07335486 0.082989864 0.0534283 -0.083409235 0.020728
0.097889446 0.08585764 0.03378388 0.016059693 0.008345736 -0.05476244 0.019886846 0.033983614
0.02876569 -0.064719394 -0.02011807 -0.11068955 -0.04710293 0.104775935 0.030937262 -0.059395064
0.033481423 0.053019885 0.033692446 -0.015980981 -0.09790246 -0.0035862604 -0.052859217 0.08746682
0.09049088 0.025425324 -0.03736954 0.08589514 0.03852318 0.06507161 -0.004143624 0.07166363
-0.07699602 0.09755092 0.076580726 0.04932627 0.05361975 -0.11412013 -0.103538446 -0.028715106
0.03772844 -0.040635217 0.0754006 0.03541316 0.0080843875 0.054682624 0.080089964 -0.08464223
-0.029820235 0.031299725 -0.012482115 -0.1198584 -0.08833745 0.07040736 0.0075449995 -0.024147926
-0.060630057 -0.087544106 -0.09365652 -0.07938073 -0.09065242 -0.045725644 0.033285055 0.09052392
-0.077050336 -0.012790801 -0.030878576 0.07264959 -0.11508612 0.06873669 0.03590427 -0.060827397
-0.009959516 -0.09118558 0.043255787 0.10510603 -0.08508803 -0.109217666 -0.043144446 0.034109145
0.09208455 -0.016087776 -0.077224925 -0.009516494 -0.05634603 -0.107358515 -0.017008003 0.06075726
-0.025335232 0.029639786 -0.016806958 0.056300387 0.082524985 -0.035260025 0.093632035 -0.013376633
-0.00064133137 -0.061444838 -0.074433625 0.075508855 0.0071447818 0.030095948 -0.015626045 0.01833864
-0.058547307 -0.06884784 -0.0011805075 0.06897703 0.06392501 0.016947012 -0.084939815 0.028196566
0.07624225 0.046783928 0.004477598 0.004616178 -0.004646767 -0.026238814 0.047428757 -0.08657868
0.030877173 -0.06375608 0.07052308 -0.056129593 -0.0005827104 -0.042090382 -0.0948112 -0.040546473
0.043909512 0.088808104 0.061844457 0.06252856 0.061774775 -0.0063763703 -0.0005212502 0.05205257
-0.066965684 -0.050660003 -0.07082778 0.10275333 -0.025051942 0.07483276 0.0012080986 -0.053226463
-0.066635154 0.005825656 -0.047017198 0.013421746 0.08063215 0.10151882 0.07467708 0.058388565
-0.066033274 -0.009085485 -0.07493871 0.06750648 0.022519702 0.07344568 -0.057243146 0.034751073
0.0048807366 0.06910719 -0.05607085 0.077647276 -0.06466285 0.06485729 -0.0990102 0.08906031
-0.09702909 0.016063675 0.05127326 -0.024679009 0.02423656 0.069637395 -0.09376614 -0.053160317
-0.07639958 -0.016222848 0.08798818 0.10417706 -0.0003628997 -0.06838936 0.041261874 0.022402726
0.009453047 0.018588481 -0.021048471 -0.053983357 0.08043966 0.039295115 0.018646644 0.028991826
-0.081298456 0.0052083125 0.07366487 0.01925718 0.077976696 -0.063718565 -0.07864766 0.01753106
-0.109533526 -0.03058813 0.05696295 0.052481156 -0.044679314 0.0036792425 -0.05596178 -0.004101835
0.08463951 -0.08812937 0.087998405 -0.092367895 -0.023864135 -0.041463926 -0.0075046215 0.092437856
0.09703797 0.021464517 -0.028304942 -0.08681881 0.061895978 -0.027604403 0.040469695 -0.06021168
0.06265782 0.010061868 -0.113023505 0.035226934 -0.07546767 0.046718698 0.03707644 -0.0025051027
-0.01456812 0.06128693 -0.004902046 0.07481708 0.02136476 0.021168614 0.0134723615 -0.018294841
-0.006188018 -0.07645048 0.0067563895 0.09346449 -0.09851645 -0.011777843 -0.03994037 -0.053191584
00000000: a357 cebc 5fd1 bfbd 0080 133d 133b 963d
00000010: 97f6 a93d a2d7 5a3d 76d2 aabd c4cd a93c
00000020: 437a c83d 21d6 af3d f760 0a3d 9e8f 833c
00000030: 8ebc 083c 954e 60bd bde9 a23c 6732 0b3d
00000040: 06a6 eb3c 9a8b 84bd a7ce a4bc 34b1 e2bd
00000050: 00ef 40bd c494 d63d 2470 fd3c 3d48 73bd
00000060: d123 093d 612b 593d 1701 0a3d 8cea 82bc
00000070: 1681 c8bd 7707 6bbb e882 58bd ce21 b33d
00000080: 4853 b93d c548 d03c ce10 19bd cbe9 af3d
00000090: 7bca 1d3d 4444 853d 3dc7 87bb 62c4 923d
000000a0: 17b0 9dbd c7c8 c73d 5bd6 9c3d 580a 4a3d
000000b0: 62a0 5b3d d1b7 e9bd f70b d4bd f13b ebbc
000000c0: 2389 1a3d 1d71 26bd a16b 9a3d 640d 113d
000000d0: 6174 043c e3fa 5f3d 3506 a43d e858 adbd
000000e0: 9149 f4bc 2434 003d c981 4cbc 5278 f5bd
000000f0: 44ea b4bd bc31 903d 0b3c f73b dfd1 c5bc
00000100: 3957 78bd 534a b3bd fdce bfbd 5d92 a2bd
00000110: faa7 b9bd d04a 3bbd e955 083d 9b64 b93d
00000120: 91cc 9dbd 8290 51bc 11f5 fcbc 4fc9 943d
00000130: 46b2 ebbd d2c5 8c3d 5b10 133d 2626 79bd
00000140: 3d2d 23bc 81bf babd fb2c 313d d541 d73d
00000150: a242 aebd 83ad dfbd 3bb8 30bd 08b6 0b3d
00000160: d396 bc3d 83ca 83bc 1a28 9ebd 12eb 1bbc
00000170: 18cb 66bd c8de dbbd 5e54 8bbc 9bdc 783d
00000180: d58b cfbc 23cf f23c bfae 89bc 3c9b 663d
00000190: dc02 a93d d16c 10bd 27c2 bf3d aa29 5bbc
000001a0: 051f 28ba 95ad 7bbd a870 98bd 63a4 9a3d
000001b0: c61e ea3b c78b f63c 3102 80bc ea3a 963c
000001c0: 4dcf 6fbd 1900 8dbd 42bb 9aba d443 8d3d
000001d0: 1eeb 823d 76d4 8a3c edf4 adbd 7cfc e63c
000001e0: e624 9c3d 81a0 3f3d d0b8 923b 4f43 973b
000001f0: e843 98bb c8f2 d6bc a844 423d 2a50 b1bd
00000200: 20f2 fc3c 8c92 82bd 686e 903d 25e8 65bd
00000210: 08c1 18ba f766 2cbd 602c c2bd 0f14 26bd
00000220: 76da 333d 06e1 b53d 9d50 7d3d f90e 803d
00000230: 8c07 7d3d dff0 d0bb 82a4 08ba 1335 553d
00000240: 4e25 89bd dd80 4fbd 280e 91bd 5670 d23d
00000250: bb39 cdbc eb41 993d 1059 9e3a fe03 5abd
00000260: 0378 88bd 25e5 be3b 1b95 40bd e2e6 5b3c
00000270: 7822 a53d 19e9 cf3d 4cf0 983d d928 6f3d
00000280: 743c 87bd 49db 14bc 7779 99bd d640 8a3d
00000290: 3d7b b83c b06a 963d ca77 6abd 2457 0e3d
000002a0: 96ee 9f3b 1288 8d3d 8caa 65bd 8905 9f3d
000002b0: f56d 84bd e6d3 843d dcc5 cabd 4065 b63d
000002c0: 30b7 c6bd f897 833c e903 523d a22b cabc
000002d0: c08b c63c 0d9e 8e3d 7608 c0bd a2be 59bd
000002e0: 6277 9cbd c7e5 84bc 2633 b43d c85a d53d
000002f0: 9343 beb9 b90f 8cbd 3602 293d ec85 b73c
00000300: f4e0 1a3c df46 983c d86d acbc a71d 5dbd
00000310: 8cbd a43d eaf3 203d d9c0 983c 4480 ed3c
00000320: ce7f a6bd 7eaa aa3b 9bdd 963d 3cc1 9d3c
00000330: 3fb2 9f3d e17e 82bd 0612 a1bd 4c9d 8f3c
00000340: 1d53 e0bd f593 fabc fb51 693d 7bf6 563d
00000350: a801 37bd 721f 713b 2e38 65bd b068 86bb
00000360: 7b57 ad3d 2c7d b4bd 8238 b43d 612b bdbd
00000370: b87e c3bc 14d6 29bd 54e9 f5bb 0f50 bd3d
00000380: d8bb c63d 5bd6 af3c c4df e7bc 0fce b1bd
00000390: a386 7d3d a122 e2bc 8dc3 253d 86a0 76bd
000003a0: be52 803d 88da 243c de78 e7bd 1e4a 103d
000003b0: cb8e 9abd 1b5c 3f3d 77dd 173d a62c 24bb
000003c0: 20af 6ebc 0108 7b3d 58a1 a0bb b239 993d
000003d0: 2605 af3c cd69 ad3c 2ebb 5c3c 10df 95bc
000003e0: dbc4 cabb 1292 9cbd b464 dd3b 4f6a bf3d
000003f0: fec2 c9bd dbf7 40bc 8398 23bd 6bdf 59bd

net.0.bias f4 [128]
0.03956085 -0.03158935 0.00087655854 0.06494516 0.033019014 -0.07833893 -0.034287944 0.044955585
-0.028311351 0.040157672 -0.10378045 0.081824414 -0.08595279 -0.031951845 -0.015884712 0.10737597
-0.06451418 -0.048471853 0.011701258 -0.04275503 -0.08884751 0.03360807 -0.034607504 0.005607756
0.041032493 0.08982975 0.03916756 0.055437002 0.044254225 0.07256753 0.011882842 -0.070750624
-0.08149096 -0.05313003 -0.03405094 -0.061945133 -0.06733764 -0.10239894 -0.07086426 -0.10755876
0.041613787 0.124493435 0.06578115 0.077371776 0.041366614 -0.0029279531 -0.04059797 -0.023491308
0.06211533 0.025265 0.018550387 0.016511021 0.038888298 -0.05312264 -0.052701514 -0.018633436
-0.08283731 0.09473761 -0.08609928 -0.09363682 0.00876573 -0.00804769 0.044792768 -0.059631
-0.13217406 0.05759267 -0.06115316 -0.017133929 -0.0111577725 0.07811821 -0.048554134 -0.09680596
-0.010867296 -0.07640585 0.09335927 -0.088836916 0.092064954 0.104965284 0.0735076 -0.025232472
-0.026957469 -0.082207225 -0.04177911 0.094256885 0.11766503 0.05770473 -0.0048324578 -0.01446514
0.031842727 0.048182573 -0.05493887 0.009536921 0.09271814 -0.076021925 0.10267231 0.0060968385
-0.045127314 -0.013142415 -0.04689513 0.007456607 -0.054461595 0.12386899 0.05121686 -0.018371474
-0.06522019 0.09154381 0.07849206 0.038039688 0.12851395 -0.01704154 0.018781686 0.030580955
0.10521423 -0.060570817 0.08260338 -0.024387235 -0.042416602 -0.07277091 0.06350488 -0.056552686
-0.09724656 0.016389856 -0.056578737 0.0060873074 0.089796394 -0.02309359 -0.10011158 -0.047641568
00000000: 8f0a 223d d663 01bd d9c8 653a f801 853d
00000010: f23e 073d 2970 a0bd 8471 0cbd 5923 383d
00000020: 35ed e7bc 5f7c 243d d88a d4bd 8f93 a73d
00000030: 0408 b0bd f0df 02bd a820 82bc efe7 db3d
00000040: 0320 84bd 6c8a 46bd a2b6 3f3c e61f 2fbd
00000050: aff5 b5bd 9ea8 093d 99c0 0dbd 44c1 b73b
00000060: b011 283d a9f8 b73d 2a6e 203d e911 633d
00000070: eb43 353d 499e 943d 40b0 423c b4e5 90bd
00000080: bce4 a6bd e09e 59bd 0079 0bbd 2eba 7dbd
00000090: 51e8 89bd 89b6 d1bd 4821 91bd c447 dcbd
000000a0: 3873 2a3d 6af6 fe3d 44b8 863d 1875 9e3d
000000b0: 0a70 293d e7e2 3fbb 0f4a 26bd d870 c0bc
000000c0: a56c 7e3d 8cf8 ce3c fbf6 973c 1f42 873c
000000d0: 5649 1f3d 2097 59bd 8bdd 57bd 26a5 98bc
000000e0: 9ca6 a9bd cb05 c23d d254 b0bd a9c4 bfbd
000000f0: 239e 0f3c 75da 03bc 9f78 373d a33f 74bd
00000100: a358 07be 4be6 6b3d bc7b 7abd 745c 8cbc
00000110: 17cf 36bc 71fc 9f3d b3e0 46bd 3442 c6bd
00000120: be0c 32bc ac7a 9cbd 2533 bf3d 21f0 b5bd
00000130: 8d8c bc3d 0af8 d63d 278b 963d 54b4 cebc
00000140: e9d5 dcbc 435c a8bd 9220 2bbd c109 c13d
00000150: 5dfa f03d cc5b 6c3d 9859 9ebb 32ff 6cbc
00000160: 856d 023d 175b 453d 9507 61bd bf40 1c3c
00000170: 02e3 bd3d 62b1 9bbd dc45 d23d fdc7 c73b
00000180: 6bd7 38bd 4953 57bc 1c15 40bd 8e56 f43b
00000190: 1f13 5fbd 06af fd3d c5c8 513d c67f 96bc
000001a0: 2a92 85bd 527b bb3d 72c0 a03d 81cf 1b3d
000001b0: 2999 033e b39a 8bbc 0ddc 993c e984 fa3c
000001c0: 8f7a d73d 1b19 78bd f62b a93d bdc7 c7bc
000001d0: 08bd 2dbd ea08 95bd d90e 823d caa3 67bd
000001e0: 3429 c7bd 0544 863c 1bbf 67bd 0978 c73b
000001f0: 2ce7 b73d c52e bdbc 4d07 cdbd ce23 43bd

net.3.weight f4 [64, 128]
-0.03534889 -0.027505476 0.048863947 -0.06244705 0.07594386 -0.052739866 -0.032480113 -0.024652416
0.07364966 0.011113205 0.0126056615 -0.07339923 0.044300653 0.015224678 0.06360493 0.06573751
0.015362004 0.039378915 0.046214648 -0.0014340975 -0.004096382 -0.05100231 -0.06623751 -0.046979833
0.06711575 -0.07888636 0.023625024 0.08091313 0.07924665 -0.082152575 -0.072863206 -0.008813508
-0.007880674 0.06278494 -0.07430662 0.013112653 0.018271945 0.0006458523 -0.08856618 -0.048089854
0.032748323 0.09251464 0.011541965 -0.0780751 0.07170568 -0.06479145 0.055141903 -0.049000166
-0.040955234 -0.020909736 -0.020712588 0.01950167 0.06267742 -0.09208977 0.0379954 0.01689886
0.05625486 -0.053672582 0.005427156 -0.06493137 0.08187476 -0.058916036 -0.06418055 -0.023609592
-0.019858876 0.042450946 0.0321214 -0.041179176 -0.023603637 0.046857655 0.03471691 -0.07225257
-0.048499126 -0.07366596 0.08855914 -0.0822683 -0.06532893 -0.09012496 0.038154367 0.03353852
0.029933989 -0.07459067 -0.06532874 0.05531586 0.059318442 0.048629794 -0.06885864 0.0684814
0.034263372 0.075107396 -0.09249196 -0.025103532 -0.025831098 0.061006647 0.005770008 0.0667829
0.03430146 -0.01917854 0.044119608 -0.07980852 -0.039420463 0.008944819 -0.053770386 -0.011456937
-0.051397868 -0.06248877 0.091448516 0.041562006 0.07350595 0.032930505 -0.06873264 -0.044472907
0.030683435 -0.05113121 -0.04271978 -0.017435148 0.07462345 -0.013594835 -0.012563892 -0.008719678
0.022119246 0.10066314 -0.042671364 0.06964847 -0.026143648 -0.059705824 -0.03849671 -0.029410524
0.06761219 -0.024616318 0.098500006 -0.026807915 0.059523955 0.07735341 -0.058538612 0.024513587
-0.047717284 0.00090749445 -0.050308112 -0.058113493 -0.0015858478 0.02517205 -0.08586995 -0.10321848
0.09284534 0.07377518 -0.05284587 0.010637612 0.059179623 -0.06435556 -0.0035075168 0.07845047
-0.0024137408 -0.008221947 0.04479042 0.085434824 0.082593486 0.10472395 -0.05075175 -0.028341597
-0.028678037 0.030930253 -0.08284796 0.10293682 -0.056079123 0.043762833 0.06452348 -0.011371387
-0.084664874 -0.054792427 -0.0049526826 -0.028436197 -0.05744999 0.044678066 0.08084137 -0.03292159
0.09811607 0.03299761 -0.09958418 0.100945145 -0.061444208 -0.033079334 -0.0786083 0.08415172
0.063423835 0.056189902 -0.063708685 0.037150767 0.06536023 0.023694009 0.04176528 -0.0302474
-0.03977857 0.09097111 -0.0072051864 -0.025060799 -0.0025497437 -0.049257793 -0.009907539 0.07079222
-0.048217323 -0.052862924 0.07714227 0.04931541 -0.049370345 -0.029896338 -0.055670775 -0.02125732
0.05083541 -0.07318346 0.057024494 0.073088385 0.08654258 -0.030599555 0.0024961233 0.07322882
-0.032881275 -0.074815124 0.06222755 -0.04646715 0.029756231 0.123806804 -0.07704585 0.035305526
0.022183742 0.01594064 0.010599276 0.015529158 0.06346474 -0.0082853455 0.08034389 -0.057924792
0.047136456 -0.09838898 -0.002536365 0.055729415 -0.032692563 -0.053557113 0.058428913 0.02441494
0.037539545 0.033601917 -0.045756172 0.117655136 -0.037000377 0.016904455 0.078640796 -0.03530053
-0.016863871 -0.07562409 0.074058145 0.08211048 -0.07339404 0.024382727 0.025961187 -0.061154027
00000000: ffc9 10bd 2a53 e1bc 9025 483d 7ac8 7fbd
00000010: 7488 9b3d c205 58bd de09 05bd ddf3 c9bc
00000020: a2d5 963d 2914 363c fa87 4e3c 5652 96bd
00000030: 9a74 353d ee70 793c 4d43 823d 63a1 863d
00000040: eab0 7b3c c94b 213d 924b 3d3d 54f8 bbba
00000050: f13a 86bb cce7 50bd 88a7 87bd ed6d 40bd
00000060: fb73 893d 2c8f a1bd 4489 c13c c8b5 a53d
00000070: 114c a23d 9c3f a8bd 4e39 95bd 8866 10bc
00000080: f11d 01bc 6495 803d 122e 98bd 74d6 563c
00000090: 0caf 953c 6a4e 293a 2f62 b5bd def9 44bd
000000a0: 1b23 063d 5178 bd3d 831a 3d3c d7e5 9fbd
000000b0: 6dda 923d 61b1 84bd 7adc 613d 66b4 48bd
000000c0: adc0 27bd e54a abbc 72ad a9bc f7c1 9f3c
000000d0: 055d 803d 9099 bcbd 11a1 1b3d 7a6f 8a3c
000000e0: 7f6b 663d c8d7 5bbd 49d6 b13b bdfa 84bd
000000f0: f4ad a73d f151 71bd 1871 83bd e768 c1bc
00000100: 15af a2bc 0be1 2d3d bb91 033d 7fab 28bd
00000110: 6a5c c1bc d0ed 3f3d 5233 0e3d 28f9 93bd
00000120: 05a7 46bd 2ede 96bd 7f5e b53d 487c a8bd
00000130: 2dcb 85bd 6f93 b8bd c147 1c3d b05f 093d
00000140: 2038 f53c fec2 98bd 13cb 85bd e292 623d
00000150: e5f7 723d 0930 473d c205 8dbd fa3f 8c3d
00000160: c057 0c3d e8d1 993d 6d6c bdbd eca5 cdbc
00000170: bd9b d3bc 1be2 793d 5612 bd3b 79c5 883d
00000180: b07f 0c3d 501c 9dbc c3b6 343d a672 a3bd
00000190: 5a77 21bd 4a8d 123c 563e 5cbd e0b5 3bbc
000001a0: 9286 52bd 39f4 7fbd 5c49 bb3d ec3c 2a3d
000001b0: 4a8a 963d 23e2 063d b3c3 8cbd 3929 36bd
000001c0: d45b fb3c f66e 51bd f0fa 2ebd 28d4 8ebc
000001d0: 2ed4 983d dfbc 5ebc c8d8 4dbc fbdc 0ebc
000001e0: 6c33 b53c 7a28 ce3d 2bc8 2ebd dba3 8e3d
000001f0: 342b d6bc 188e 74bd baae 1dbd 57ee f0bc
00000200: 4378 8a3d 29a8 c9bc 5fba c93d 469c dbbc
00000210: 64cf 733d 776b 9e3d 2fc6 6fbd b8d0 c83c
00000220: 3373 43bd ece4 6d3a e10f 4ebd 6a08 6ebd
00000230: 39dc cfba 9d35 ce3c 96dc afbd 3664 d3bd
00000240: b325 be3d 7117 973d e974 58bd 6149 2e3c
00000250: 5566 723d d9cc 83bd 5ede 65bb a4aa a03d
00000260: da2f 1ebb 58b5 06bc 2976 373d 74f8 ae3d
00000270: c626 a93d 8379 d63d 11e1 4fbd a32c e8bc
00000280: 34ee eabc 7161 fd3c 31ac a9bd 8ad0 d23d
00000290: 39b3 65bd a840 333d e324 843d 0e4f 3abc
000002a0: c764 adbd 066e 60bd 1d4a a2bb 07f3 e8bc
000002b0: ae50 6bbd 5900 373d 2990 a53d cad8 06bd
000002c0: 14f1 c83d 8028 073d caf2 cbbd 54bc ce3d
000002d0: ecac 7bbd 327e 07bd 63fd a0bd bd57 ac3d
000002e0: 5be4 813d 6227 663d b379 82bd 672b 183d
000002f0: 96db 853d f019 c23c 1212 2b3d 65c9 f7bc
00000300: dbee 22bd 104f ba3d 7c19 ecbb 4e4c cdbc
00000310: 9a19 27bb 8ac2 49bd 3b53 22bc 83fb 903d
00000320: 877f 45bd cb86 58bd c4fc 9d3d f5fe 493d
00000330: 8f38 4abd 2ae9 f4bc 0a07 64bd d523 aebc
00000340: ca38 503d 36e1 95bd 8492 693d 5daf 953d
00000350: 3c3d b13d ebab fabc 0096 233b fef8 953d
00000360: 84ae 06bd ac38 99bd 51e2 7e3d 5754 3ebd
00000370: 57c3 f33c 6c8e fd3d 37ca 9dbd 879c 103d
00000380: aeba b53c f295 823c 96a8 2d3c 026e 7e3c
00000390: cdf9 813d 42bf 07bc 568b a43d 8c42 6dbd
000003a0: 2812 413d 2980 c9bd 2539 26bb 8744 643d
000003b0: a3e8 05bd b45e 5bbd 2853 6f3d d701 c83c
000003c0: 11c3 193d 2aa2 093d d36a 3bbd 2df5 f03d
000003d0: b58d 17bd 367b 8a3c 6d0e a13d 4a97 10bd
000003e0: 1a26 8abc cee0 9abd ccab 973d 8a29 a83d
000003f0: 9d4f 96bd 49be c73c 8eac d43c a57c 7abd

net.3.bias f4 [64]
-0.07452194 -0.043344714 -0.0013853047 0.004105965 0.09239297 0.11373112 -0.021125859 0.087247156
-0.037182212 -0.004992204 -0.060991485 0.07145668 0.014331126 0.031268522 -0.010032564 0.058934852
0.0051446934 0.08263218 0.09429511 0.07639748 -0.06751959 -0.027458979 0.030005174 -0.047939483
-0.039663702 -0.002126896 0.06682004 -0.046714433 0.0087832045 -0.022147007 0.042832457 -0.04652615
-0.0716037 -0.020895857 0.093162306 -0.043051194 -0.02051596 -0.06907515 -0.039780706 -0.085865356
0.034296546 -0.03718982 -0.047207266 -0.00011207425 0.019510798 -0.03723375 0.048819825 -0.022410275
-0.025843695 -0.07624643 0.075354666 0.01794691 0.10995285 0.010429298 0.051476363 0.059752442
-0.08744976 -0.032172233 -0.017603245 0.102893636 0.027714528 0.078050874 -0.014586692 -0.0151813505
00000000: f59e 98bd 3a8a 31bd 1d93 b5ba 558b 863b
00000010: 8738 bd3d ddeb e83d 2310 adbc a3ae b23d
00000020: 604c 18bd a495 a3bb 35d2 79bd e157 923d
00000030: 19cd 6a3c 6c13 003d a05f 24bc ac65 713d
00000040: d194 a83b 0f3b a93d cb1d c13d 4876 9c3d
00000050: b647 8abd a7f1 e0bc 69cd f53c 315c 44bd
00000060: 6876 22bd 6563 0bbb f2d8 883d a257 3fbd
00000070: 6ee7 0f3c a46d b5bc 1671 2f3d 3492 3ebd
00000080: f6a4 92bd ca2d abbc e1cb be3d 7356 30bd
00000090: 1611 a8bc 4677 8dbd 18f1 22bd 2dda afbd
000000a0: 897a 0c3d 5a54 18bd 685c 41bd 6809 ebb8
000000b0: 1cd5 9f3c 6b82 18bd 4cf7 473d c195 b7bc
000000c0: 28b6 d3bc 1727 9cbd 8c53 9a3d 6605 933c
000000d0: f62e e13d a5df 2a3c e1d8 523d fabe 743d
000000e0: dc18 b3bd 08c7 03bd ae34 90bc e6b9 d23d
000000f0: 9409 e33c 23d9 9f3d 05fd 6ebc 33bb 78bc

net.6.weight f4 [1, 64]
0.0632495 -0.11833071 0.12241847 0.11364026 0.061884448 0.11819382 0.03869313 -0.060826648
0.00440956 -0.14238453 0.05869802 -0.029130686 -0.08947305 0.09645177 0.0723921 0.10987801
0.15242337 -0.12999731 -0.10791538 -0.07153075 0.03584598 0.055523697 0.06027588 0.056902
0.11422747 0.08710587 0.1310813 -0.099764705 -0.13923486 -0.091297545 0.1166942 0.09706556
-0.11063719 -0.072942205 -0.1286387 0.11534152 -0.041073296 0.001955702 -0.138446 0.030294145
-0.14318585 -0.06885159 -0.058102567 -0.08702445 0.12107788 0.075790696 0.1011258 0.040063627
0.06436611 -0.02212834 -0.082920134 0.1308712 0.07850366 -0.108745165 0.056822818 -0.10951915
-0.03389428 0.06671844 0.057987403 0.07798024 0.08706588 0.03112249 0.036607992 -0.12568429
00000000: f488 813d 5f57 f2bd 89b6 fa3d 3abc e83d
00000010: 8c7a 7d3d 9a0f f23d b07c 1e3d 5d25 79bd
00000020: 127e 903b 40cd 11be 566d 703d 7aa3 eebc
00000030: a53d b7bd 8188 c53d 4f42 943d b907 e13d
00000040: df14 1c3e 041e 05be bd02 ddbd b77e 92bd
00000050: 3cd3 123d d16c 633d d7e3 763d 1212 693d
00000060: 17f0 e93d 9064 b23d 2d3a 063e 7051 ccbd
00000070: 9593 0ebe 35fa babd 5efd ee3d 4fca c63d
00000080: c095 e2bd b962 95bd ddb9 03be 2d38 ec3d
00000090: 793c 28bd 3c2b 003b cac4 0dbe 6d2b f83c
000000a0: 509f 12be 1002 8dbd f5fc 6dbd e039 b2bd
000000b0: aef7 f73d 2738 9b3d 0b1b cf3d c219 243d
000000c0: 61d2 833d 7e46 b5bc 08d2 a9bd 1a03 063e
000000d0: 87c6 a03d c9b5 debd 0bbf 683d 934b e0bd
000000e0: bbd4 0abd ada3 883d 3384 6d3d 1bb4 9f3d
000000f0: 994f b23d 98f4 fe3c 43f2 153d 62b3 00be
