backend/backend/luma_model.pth (torch, 89721 bytes, 5 tensors)

net.0.weight f4 [128, 103]
0	0xbd3b36ab	-0.045706432
1	0xbd97a8cb	-0.074052416
2	0xbc836f3c	-0.016044252
3	0xbd914d51	-0.07094825
4	0xbcd76fdc	-0.026298456
5	0xbd9197d1	-0.07109035
6	0x3d52779b	0.051383596
7	0x3db4de70	0.08831489
8	0xbd60f1ef	-0.054918226
9	0x3c9b717d	0.018975014
10	0x3ba63e6b	0.005073359
11	0xbb601c26	-0.0034196465
12	0x3d71a33c	0.058993563
13	0xbd6d5a6d	-0.057947565
14	0x3d5f8fa5	0.05458035
15	0x3daab835	0.08335916
16	0xbd2cab53	-0.042155575
17	0x3d9e082f	0.07716405
18	0x3d942759	0.072340675
19	0x3cf0eda7	0.029410196
20	0x3cb024dd	0.021501953
21	0xbad2a4a5	-0.0016070796
22	0x3d89f77c	0.06736657
23	0x3da0e13e	0.078554615
24	0xbbf06def	-0.007337324
25	0xbb3d468c	-0.002888116
26	0xbd1313e3	-0.035907637
27	0x3d9e8677	0.07740491
28	0x3d7833cc	0.060596272
29	0x3d124bdc	0.035716876
30	0xbdded113	-0.108797215
31	0x3bd26852	0.0064211274
32	0x3cc654d4	0.024210371
33	0xbd89eeec	-0.06735024
34	0xbd022e37	-0.031782355
35	0xbdc8be04	-0.098018676
36	0xbdc0a89b	-0.09407159
37	0x3c0b1ac6	0.00849027
38	0xbd9267fb	-0.07148739
39	0x3d9248fb	0.07142826
40	0xbbb1e1b2	-0.0054285163
41	0xbd8956b7	-0.06705993
42	0xbd6f0049	-0.05834988
43	0xbde6614c	-0.11249027
44	0xbd95d51e	-0.073160395
45	0x3db3d8b6	0.08781569
46	0x3c2c6059	0.010521018
47	0xbc901d31	-0.017592045
48	0x3bf6deb7	0.007533874
49	0x3d7feb8e	0.0624805
50	0xbdb365ca	-0.08759649
51	0x3db74f8e	0.08950721
52	0x3db76c93	0.08956256
53	0x3ddfa98a	0.10921009
54	0xbc61c428	-0.013779677
55	0xbc1c25a0	-0.009530455
56	0xbd67c423	-0.056583535
57	0x3d021d8b	0.031766456
58	0x3d5c5c9e	0.053799264
59	0xbdcbdfd7	-0.099548034
60	0x3d8a37a0	0.06748891
61	0xbdac121d	-0.08401892
62	0xbd10e19d	-0.03537141
63	0x3dbd8c80	0.09255314
64	0xbd67d2a5	-0.05659737
65	0xbde33969	-0.110949345
66	0xbdbd3c06	-0.09239964
67	0xbdbba6f6	-0.09162705
68	0x3ddbfe42	0.10741855
69	0xbd410cbb	-0.04713128
70	0x3d99f647	0.07517677
71	0xbd5bdfeb	-0.05368034
72	0x3c0f28ce	0.008737756
73	0x3d8be362	0.06830479
74	0xbd434dca	-0.047681607
75	0x3da5b5f7	0.08091348
76	0x3d7a4c2e	0.061107807
77	0x3dc81d0b	0.097711645
78	0x3d469b85	0.04848816
79	0x39ae8b07	0.0003329145
80	0x3dc0e883	0.09419348
81	0xbd443861	-0.04790533
82	0xbd3465f8	-0.044042557
83	0xbdc204ab	-0.094735466
84	0x3d9b2848	0.075760424
85	0xbcaef59c	-0.02135735
86	0x3d9a867e	0.075451836
87	0x3cdeaa47	0.027180804
88	0x3c743ca9	0.014907041
89	0xbda03ab1	-0.078236945
90	0xbd170a5a	-0.036875106
91	0x3cfa7060	0.030571163
92	0xbd2331ec	-0.03984253
93	0xbd63cab1	-0.055613223
94	0xbd7cad2a	-0.06168858
95	0x3d8932fa	0.06699176
96	0x3da48156	0.08032481
97	0x3dc3a5c5	0.095531024
98	0xbd556f41	-0.052108053
99	0xbc89ea14	-0.01683525
100	0x3d0ba5bf	0.034093615
101	0x3b2884bf	0.0025713888
102	0x3db6296e	0.08894621
103	0x3dba813a	0.09106679
104	0x3d7f318e	0.06230312
105	0xbd453b2c	-0.048152134
106	0xbd51b458	-0.05119738
107	0xbd820a68	-0.06349641
108	0x3d8fe28c	0.07025632
109	0xbd46245f	-0.04837453
110	0x3c6857df	0.014181106
111	0xbca4f73d	-0.020137424
112	0xbcef1751	-0.029185923
113	0x3c27d3d0	0.010243371
114	0x3db01a78	0.085987985
115	0xbb89ea28	-0.004208822
116	0x3da401b8	0.0800814
117	0xbcb8a9e2	-0.022541944
118	0x3da27886	0.07933144
119	0x3dd5208e	0.104066
120	0x3da8d2ae	0.08243309
121	0x3ceffc7e	0.029295202
122	0x3bc60493	0.0060430258
123	0x3d843190	0.06454766
124	0x3da76b6f	0.08174788
125	0xbd5a48c7	-0.053292062
126	0xbc98e6c6	-0.018664729
127	0xbbb3f99f	-0.0054924036
128	0xbdabfd9f	-0.08397984
129	0xbd004c6e	-0.03132289
130	0x3d3f5547	0.046712186
131	0xbd9dca41	-0.077045925
132	0xbd4f8289	-0.050661597
133	0x3bd84c8f	0.0066009234
134	0xbdc040ef	-0.09387385
135	0x3c08fb30	0.008360669
136	0xbd761e2c	-0.060087368
137	0x3d0ab902	0.033867843
138	0x3c67f825	0.014158283
139	0xbdc14c47	-0.09438377
140	0x3d0acc91	0.033886496
141	0xbd876c59	-0.066124626
142	0xbc130aaf	-0.008974715
143	0xbd0850df	-0.03328025
144	0x3da3121e	0.0796244
145	0xbdc7fe3e	-0.0976529
146	0x3dabfd70	0.08397949
147	0x3d87d92f	0.06633221
148	0xbcaa3d81	-0.02078128
149	0x3d78738d	0.060657073
150	0xbdca2a3d	-0.098713376
151	0xbb966660	-0.004589841
152	0x3b08e349	0.0020887426
153	0x3c03b99f	0.008039861
154	0xbdbe748d	-0.09299574
155	0x3d00b960	0.031426787
156	0xbd410147	-0.04712036
157	0x3d71b677	0.059011903
158	0x3daab1a1	0.08334661
159	0xbddcb3ac	-0.10776457
160	0xbdb2ffb6	-0.08740179
161	0xbdedf8c3	-0.11619713
162	0xbc618df9	-0.013766759
163	0x3c8ca5c9	0.017168896
164	0x3c72650a	0.014794597
165	0xbd330f53	-0.043715786
166	0xbca7ff86	-0.020507585
167	0xbd213f63	-0.03936709
168	0x3d960f9b	0.07327195
169	0xbd3b78f7	-0.045769658
170	0x3d9eb6a0	0.07749677
171	0xbd0332e6	-0.032030962
172	0xbd09ea6c	-0.033670828
173	0x3cb4eea1	0.022086443
174	0x3a22e6ec	0.00062142196
175	0x3d7288bf	0.059212442
176	0xbc30c123	-0.010788235
177	0xbb4b7a2b	-0.003104816
178	0xbda83fd9	-0.08215303
179	0x3dd3af77	0.10336202
180	0xbd73b949	-0.059502874
181	0x3db2b833	0.087265395
182	0xbdc0b9d2	-0.094104424
183	0x3d3d137f	0.04616117
184	0xbdb48e71	-0.08816231
185	0xbcd9d0ea	-0.026588876
186	0x3d74b922	0.05974687
187	0xbd5464ee	-0.051854067
188	0x3dc89752	0.09794487
189	0x3c8716d9	0.016490387
190	0x3c78ef75	0.01519381
191	0x3d8dd112	0.069246426
192	0x39a7c679	0.00032000596
193	0xbd3dd282	-0.046343334
194	0xbd57053e	-0.052495234
195	0x3dad46f2	0.08460797
196	0xbda447d2	-0.08021511
197	0x3cfa2240	0.03053391
198	0x3dcab43a	0.09897657
199	0x3db216d3	0.086957596
200	0x3ca21935	0.01978741
201	0x3cc020b0	0.023453087
202	0xbda36b3c	-0.07979438
203	0xbcdebca3	-0.027189558
204	0xbb6e57e2	-0.00363683
205	0x3d095d68	0.033536345
206	0x3d3e8c26	0.046520375
207	0xbdacb7df	-0.08433508
208	0xbda7b58a	-0.08188923
209	0x3d44fa9d	0.048090566
210	0xbd93b450	-0.07212126
211	0xbd9430bc	-0.07235858
212	0xbdc2466d	-0.09486089
213	0x3da79503	0.081827186
214	0x3d82a907	0.06379896
215	0x3d9fcd9c	0.07802889
216	0xbdb3207b	-0.087464295
217	0x3d7d9262	0.06190718
218	0x3d7a91af	0.06117409
219	0x3c7832d1	0.015148834
220	0xbda0cbf6	-0.078514025
221	0xbda2c62c	-0.079479545
222	0xbd9beb4b	-0.07613238
223	0xbd69724e	-0.056993775
224	0x3d51f88b	0.05126242
225	0x3d970abd	0.07375095
226	0x3ce7284f	0.028217463
227	0x3d7e6157	0.06210455
228	0xbd48a8ac	-0.048988983
229	0x3dc7e918	0.09761256
230	0x3daebb2d	0.08531795
231	0x3d957ce1	0.072992094
232	0x3dc3ba07	0.09556966
233	0x3cf3e87c	0.029773943
234	0x3da5dd89	0.08098895
235	0x3d720d0a	0.059094466
236	0xbdcddb68	-0.10051614
237	0xbdc0b746	-0.09409957
238	0xbd82d1ae	-0.063876495
239	0xbd15cc53	-0.036571812
240	0xbdc5db99	-0.096610256
241	0xbdd0b765	-0.1019123
242	0x3c0037bf	0.007825791
243	0x3dc8e29a	0.09808846
244	0xbde31144	-0.110872775
245	0xbcec0c14	-0.028814353
246	0x3cd35a16	0.025799792
247	0x3d993f92	0.07482828
248	0xbdf86a40	-0.121296406
249	0x3ce33354	0.027734436
250	0xbd8a0029	-0.06738312
251	0xbdd9847d	-0.10620973
252	0xbca753db	-0.020425728
253	0x3d685f78	0.05673167
254	0xbaf91389	-0.0019003014
255	0xbd3e9cce	-0.04653626

net.0.bias f4 [128]
0	0xbd3ada1a	-0.045618154
1	0x3ba34752	0.0049828673
2	0x3d738343	0.059451353
3	0xbd24dd2b	-0.040249985
4	0x3dd87155	0.10568491
5	0x3dd292eb	0.10281929
6	0x3d6fbeb6	0.058531485
7	0x3c0fed0d	0.008784545
8	0xbdc77ac9	-0.09740216
9	0xbdb8dff2	-0.09027089
10	0xbd2d96d3	-0.042380165
11	0x3db6f5bf	0.08933591
12	0xbc5f03b6	-0.013611725
13	0xbcfaedd7	-0.030630989
14	0x3db3d583	0.087809585
15	0xbd12afb5	-0.0358121
16	0x3d85f839	0.06541485
17	0x3deafe3a	0.11474271
18	0x3d1988db	0.03748403
19	0x3d005c19	0.03133783
20	0x3c95cc9c	0.018286042
21	0x3dcfd2cf	0.101476304
22	0x3c3de28a	0.011589656
23	0x3da675f1	0.08127964
24	0xbbdc9930	-0.0067321286
25	0x3d6b2c52	0.057415314
26	0xbd6edc80	-0.058315754
27	0xbc4fda20	-0.012686282
28	0x3d5b8b0c	0.053599402
29	0xbd656eff	-0.056014057
30	0x3dda949d	0.10672877
31	0x3d82989a	0.06376763
32	0xbc4a9e6e	-0.012366874
33	0x3c66bb77	0.014082781
34	0xbbf2733f	-0.0073989923
35	0xbd91f33f	-0.07126474
36	0x3dc52cbc	0.09627673
37	0x3d7952b8	0.060869902
38	0x3c5981a2	0.013275536
39	0x3de43a6b	0.11143955
40	0x3d351b55	0.04421552
41	0x3c0e66e5	0.008691524
42	0x3bed8fa9	0.0072497916
43	0xbd8ceaa7	-0.06880694
44	0xbd6520ec	-0.0559396
45	0x3dc38cab	0.09548315
46	0x3d0624c0	0.03274989
47	0x3cf02b70	0.029317588
48	0x3cf1e624	0.029528685
49	0x3d953da6	0.07287149
50	0x3d10bca8	0.035336167
51	0x3cff07ed	0.031131709
52	0xbd2e937c	-0.04262112
53	0x3d0be65e	0.034155242
54	0x3d691a36	0.056909762
55	0xbda37919	-0.07982082
56	0xbd484224	-0.0488912
57	0xbda2ed8b	-0.07955464
58	0xbcde2e58	-0.027121708
59	0xbd48940e	-0.04896932
60	0x3d83ea4a	0.064411715
61	0x3c6a9802	0.014318468
62	0xbd662d27	-0.056195404
63	0xbd9926e5	-0.07478122
64	0xbbee74b9	-0.007277098
65	0x3cf51df1	0.029921504
66	0x3d24f404	0.040271774
67	0x3b99ee64	0.004697608
68	0x3d0317b1	0.032005016
69	0x3d1979cd	0.037469674
70	0xbd534a0d	-0.051584292
71	0x3cdd76f4	0.02703426
72	0xbd7e7747	-0.06212547
73	0x3d134110	0.03595072
74	0x3c133a31	0.008986042
75	0xbc3affe3	-0.011413547
76	0x3b9d74c0	0.0048051775
77	0xbda5d795	-0.0809776
78	0x3bdefc38	0.006804969
79	0x3c47bf8c	0.012191664
80	0x3db3e132	0.08783187
81	0xbd8fbb93	-0.07018199
82	0x3d21e51b	0.039525133
83	0xbd2e4d9e	-0.04255449
84	0x3cc12a8b	0.023579856
85	0x3d1edbe3	0.03878392
86	0xbdab50cd	-0.08365021
87	0xbcee4276	-0.029084425
88	0xbda9aba5	-0.08284692
89	0x3d150035	0.03637715
90	0xbcb691da	-0.022286344
91	0xbc65ac66	-0.014018154
92	0x3d8a4077	0.06750577
93	0xbdb49183	-0.08816817
94	0xbd3af40e	-0.045642905
95	0x3d852aba	0.0650229
96	0xbc0d1bbd	-0.00861257
97	0x3db51e17	0.0884363
98	0x3ccdf90a	0.025143165
99	0x3d74a75d	0.059729923
100	0x3d60e4b2	0.0549056
101	0xbc52c698	-0.012864731
102	0xbd1ada55	-0.037805874
103	0xbbd66f8f	-0.0065440605
104	0xbd378b94	-0.044810846
105	0x3c084540	0.008317292
106	0xbd44cd7e	-0.048047535
107	0x3d2fa37a	0.042880513
108	0xbd371dad	-0.044706035
109	0x3c350b40	0.0110500455
110	0xbdd3c6bc	-0.1034064
111	0xba9fa48e	-0.0012179778
112	0xbd52a2b3	-0.051424693
113	0x3bb0e4b1	0.005398356
114	0x3d947917	0.072496586
115	0xbd745ac8	-0.05965689
116	0x3d4ba76d	0.049720217
117	0x3d3235a4	0.043508187
118	0xbd80347d	-0.06260011
119	0x3d4ef385	0.050525207
120	0x3d16ef0c	0.036849067
121	0x3c88e141	0.016708972
122	0xbd23f38b	-0.040027183
123	0xbd6b923c	-0.057512507
124	0x3c4f5b37	0.012656025
125	0xbca9b6ee	-0.02071711
126	0xbd6ea3b9	-0.058261607
127	0x3da6895b	0.08131667

net.3.weight f4 [64, 128]
0	0x3d39ff1b	0.045409303
1	0xbc61c919	-0.013780856
2	0x3d0767ed	0.033058096
3	0x3d760d45	0.06007125
4	0x3d8b37f8	0.067977846
5	0x3a662130	0.0008778749
6	0x3dda8455	0.106697716
7	0xbcd19404	-0.025583275
8	0x3d155581	0.036458496
9	0xbd73d6a0	-0.059530854
10	0x3d7011fa	0.058610894
11	0xbd0a83b3	-0.033817004
12	0x3d56ffef	0.05249017
13	0xbbe6b898	-0.0070410483
14	0x3c7558ff	0.014974832
15	0xbd6cb846	-0.057792924
16	0x3d178099	0.036987875
17	0x3db8a410	0.090156674
18	0x3c6495d1	0.013951735
19	0x3de2f3bd	0.11081646
20	0xbc98c8a8	-0.018650368
21	0x3d8d061f	0.06885933
22	0xbd84a97b	-0.06477638
23	0xbd4b4fe6	-0.049636744
24	0x3db705bc	0.089366406
25	0x3cebd476	0.028787833
26	0x3d6c415a	0.05767951
27	0x3cfb93b3	0.030710077
28	0xbcf1d8c9	-0.029522317
29	0xbd0ec70c	-0.034857795
30	0x3cb23151	0.021752032
31	0x3d57b79d	0.05266534
32	0xbd0d1844	-0.03444697
33	0x3cdb9972	0.026806567
34	0x3cf425b1	0.029803129
35	0x3d938554	0.07203165
36	0x3dc75b75	0.09734241
37	0xbcd3782e	-0.025814142
38	0x3d157e06	0.03649714
39	0xbd5e1286	-0.054216884
40	0x3d891af4	0.06694594
41	0x3df971bb	0.121798955
42	0x3b87fd2f	0.004150055
43	0x3dfd0dde	0.123561606
44	0x3d20297b	0.03910206
45	0x3d652ff2	0.055953927
46	0x3c2791c3	0.010227623
47	0x3be90aa2	0.0071118632
48	0xbd50280a	-0.050819434
49	0xbbdbd4f8	-0.0067087375
50	0x3c117f60	0.008880466
51	0x3cfbf143	0.030754691
52	0xbd474013	-0.04864509
53	0x3db53147	0.088472895
54	0x3d483219	0.0488759
55	0xbcd51fa4	-0.026016064
56	0x3d57ae19	0.052656267
57	0xbd86cb93	-0.065817975
58	0xbca87d78	-0.02056764
59	0x3c3c8ea8	0.011508621
60	0xbcc30ae0	-0.023808897
61	0xbd57a3f5	-0.052646596
62	0xbd4291fb	-0.0475025
63	0xbb5bbc5c	-0.003352902
64	0xbdf23abd	-0.1182761
65	0x3d97142c	0.07376894
66	0xbaada74b	-0.001324871
67	0x3dfc4b72	0.123190776
68	0xbccc2695	-0.024920741
69	0x3c5c1939	0.013433748
70	0xbcb802a3	-0.022462195
71	0xbd517cd8	-0.05114445
72	0xbd099229	-0.033586655
73	0x3ddd2d89	0.10799701
74	0x3dd9f9a4	0.10643318
75	0x3d1f88a7	0.03894868
76	0x3cf79d1b	0.03022628
77	0x3d1ab1fd	0.0377674
78	0xba96ffbc	-0.0011520307
79	0x3de641c8	0.112430155
80	0xbba5a8e9	-0.005055536
81	0x3e051f26	0.13000163
82	0x3bca302d	0.006170294
83	0x3e17ff64	0.14843518
84	0x3d23a302	0.03995038
85	0x3da5d918	0.08098048
86	0x3c5c3cc9	0.013442227
87	0x3d997f12	0.0749494
88	0xbbce0858	-0.0062876157
89	0x3e114d27	0.14189588
90	0x3dec533a	0.11539312
91	0x3dfc7222	0.123264566
92	0xbd58d1eb	-0.05293457
93	0x3c89c636	0.016818147
94	0x3d57ba44	0.05266787
95	0x3d16ad66	0.03678646
96	0x3bad6cf0	0.0052925274
97	0x3db07aeb	0.08617195
98	0x3d932010	0.0718385
99	0x3d253d67	0.04034176
100	0x3d99caf2	0.07509412
101	0x3df653c8	0.12027699
102	0x3d84df0c	0.06487855
103	0x3c88ed7e	0.016714808
104	0xbcc9ae44	-0.02461923
105	0xbd39dfd7	-0.045379486
106	0x3d076ccc	0.03306274
107	0x3d0fd569	0.035115633
108	0xbc85c7cf	-0.016330628
109	0xbcf43acf	-0.029813198
110	0x3d192f3e	0.03739857
111	0xbd101116	-0.035172544
112	0xbd6511c1	-0.055925135
113	0xbd7dfd29	-0.06200901
114	0x3b17001a	0.0023040832
115	0xbd1c8bb5	-0.038219173
116	0xbd741665	-0.05959167
117	0x3dbfe98a	0.09370716
118	0x3d69c50c	0.057072684
119	0x3d9e5918	0.07731837
120	0x3d8a332f	0.06748044
121	0x3dfa199e	0.12211917
122	0x3d5c17ba	0.053733565
123	0x3dc3b3a3	0.09555747
124	0x3c0ab008	0.008464821
125	0x3e070f07	0.13189326
126	0x3db94397	0.09046095
127	0xbd24c28c	-0.040224597
128	0x3cde67ae	0.027149048
129	0x3d88b8e5	0.06675891
130	0x3d9ce602	0.07661058
131	0xbd4bbc9c	-0.04974042
132	0xbd5fe25e	-0.05465924
133	0xbda6d665	-0.08146361
134	0x3dd6ce0c	0.10488519
135	0xbce0445c	-0.027376346
136	0x3c1cdcb3	0.009574103
137	0x3d9922bd	0.07477329
138	0xbcdf8da8	-0.027289227
139	0xbcd93df9	-0.026518809
140	0x3d2ef992	0.042718478
141	0x3dba698f	0.09102165
142	0x3d9297c0	0.0715785
143	0x3c9b3a5e	0.01894873
144	0xbd32ece6	-0.043682955
145	0xbd8dff3b	-0.06933447
146	0x3d8b331a	0.06796856
147	0x3d39c529	0.045354042
148	0xbd938cce	-0.07204591
149	0xbc85666b	-0.016284188
150	0x3db1965f	0.08671259
151	0xbc591d97	-0.013251684
152	0x3d5a4a92	0.053293772
153	0xbca5010e	-0.020142104
154	0x3cc07c39	0.023496734
155	0x3ca263da	0.019823004
156	0xbd2d3e2b	-0.042295616
157	0x3dc42c52	0.09578766
158	0x3d4a92c7	0.049456384
159	0x3dace0c5	0.08441309
160	0xbd61018e	-0.054933123
161	0xbd73ad1c	-0.05949126
162	0x3d8fabd6	0.07015197
163	0xbbbbe328	-0.0057338662
164	0xbcd4e798	-0.025989339
165	0x3d17c37f	0.037051674
166	0xbd086760	-0.03330171
167	0xbd68c9d5	-0.056833107
168	0x3d50f666	0.051016234
169	0x3d40d9dc	0.047082767
170	0x3dae2a79	0.08504195
171	0x3ccb3fe4	0.024810739
172	0xbd08703a	-0.033310153
173	0xbc8d6b56	-0.017263096
174	0x3dd92b16	0.10603921
175	0xbd1d7539	-0.03844187
176	0x3bff1675	0.0077846595
177	0xbd717aff	-0.05895519
178	0x3dde6a91	0.1086017
179	0xbd0475eb	-0.032339018
180	0x3ddb3cc4	0.107049495
181	0xbc3c824e	-0.011505676
182	0x3dc6635b	0.09686919
183	0xbdadb67a	-0.0848207
184	0x3d96f8c2	0.073716655
185	0xbd6e7d7f	-0.05822515
186	0xbd3a23f0	-0.04544443
187	0x3da9e52e	0.08295666
188	0x3d26710c	0.040635154
189	0xbd9e2676	-0.077221796
190	0x3ddf5570	0.10904968
191	0xbd5583f4	-0.052127793
192	0x3b3d7ac2	0.002891228
193	0x3d6b0e6d	0.057386804
194	0x3abf71f4	0.0014606104
195	0x3d14e350	0.036349595
196	0x3d8510b1	0.06497324
197	0x3d1a55e7	0.03767958
198	0x3d5be332	0.053683467
199	0x3cd0c90e	0.025486495
200	0x3c281594	0.010259051
201	0x3aa25e37	0.0012387697
202	0x3d3854d3	0.04500277
203	0x3d58f5ad	0.05296867
204	0xbd54c0ea	-0.05194179
205	0x3d85f219	0.06540317
206	0x3d19d387	0.037555244
207	0x3c70e950	0.014704064
208	0xbcf45084	-0.02982355
209	0x3d688d90	0.05677563
210	0xbda19b78	-0.078909814
211	0x3dfce69b	0.12348672
212	0x3da63740	0.08116007
213	0x3bba4868	0.005684901
214	0xbb9a8d81	-0.0047165756
215	0x3d18888b	0.037239593
216	0xbcdd034c	-0.026979111
217	0x3d851f37	0.065000944
218	0x3d654207	0.05597117
219	0xbcfa1ba4	-0.030530758
220	0x3c8b8548	0.017031327
221	0xbd863be3	-0.06554391
222	0x3e08f86f	0.1337602
223	0x3d9f5763	0.077803396
224	0xbcd0b8c5	-0.02547873
225	0x3cf08198	0.02935867
226	0xbbc58169	-0.00602739
227	0x3c993bb3	0.018705225
228	0xbd636dc9	-0.05552462
229	0x3b5f6db0	0.0034092478
230	0x3dd91e9d	0.10601542
231	0x3d4b2d4e	0.049603753
232	0xbd9b77f9	-0.07591242
233	0x3db2460d	0.087047674
234	0x3b023adf	0.0019871516
235	0x3b8ac17c	0.004234491
236	0x3dd8fc44	0.10594991
237	0x3ca153e2	0.019693319
238	0xba37e97d	-0.00070156885
239	0x3d667499	0.05626354
240	0x3d226b2f	0.039653
241	0xbd361a20	-0.04445851
242	0xbcb74966	-0.022373866
243	0xbce59941	-0.028027179
244	0x3c5d30cf	0.013500406
245	0xbcbcc697	-0.023043914
246	0xbbcd75cb	-0.0062701455
247	0x3dd06df6	0.101772234
248	0x3d1c91c4	0.03822495
249	0x3e0c5d99	0.1370758
250	0xbd6d8552	-0.057988472
251	0x3db517c8	0.088424265
252	0x3e06dd15	0.13170274
253	0xbd2b4e34	-0.041822627
254	0x3cf86033	0.030319309
255	0xbdadc887	-0.08485513

net.3.bias f4 [64]
0	0xbd83ca4c	-0.064350694
1	0x3d2da614	0.042394713
2	0x3b613acc	0.003436732
3	0x3d72916f	0.059220728
4	0x3d562c5c	0.0522884
5	0x3cf005ad	0.029299581
6	0x3cbf4e47	0.023352755
7	0x3d8fe867	0.07026749
8	0x3d38f4a5	0.045155186
9	0xbbc20733	-0.0059212684
10	0xbca2de1a	-0.019881297
11	0x3d9768d5	0.07393042
12	0x3dbcdef8	0.092222154
13	0x3d2064ed	0.03915875
14	0x3c8d30ea	0.017235238
15	0x3daca761	0.084303625
16	0x3d4f2938	0.05057642
17	0x3ba74a89	0.005105321
18	0x3cb77273	0.02239344
19	0x3c26cfa5	0.010181342
20	0xbd1bfafb	-0.03808115
21	0xbd3273f0	-0.043567598
22	0xb9b897ac	-0.0003520822
23	0x3d875bba	0.06609292
24	0xbd46c2c8	-0.0485256
25	0x3c26bd30	0.010176942
26	0x3d7fa5d4	0.062414005
27	0xbd611a82	-0.05495692
28	0x3ca0a597	0.01961021
29	0xbd8046bd	-0.06263492
30	0x3d6d880b	0.05799107
31	0xbd6dc0ef	-0.058045324
32	0x3cf465ea	0.029833753
33	0x3d305aba	0.043055274
34	0xbd69c5a5	-0.057073254
35	0x3c8bdcc2	0.017073039
36	0xbbd63e81	-0.0065382128
37	0xbc81248a	-0.015764493
38	0x3dc17656	0.09446399
39	0xbc4a3cdd	-0.0123436125
40	0x3b6bcfc2	0.0035981988
41	0xbd72688d	-0.05918174
42	0x3db28622	0.0871699
43	0x3d2f0f92	0.04273946
44	0x3d9a0826	0.075210854
45	0x3bdf9242	0.006822855
46	0x3c6850e7	0.014179445
47	0x3dbf04bb	0.09327074
48	0xbc9e82fc	-0.019349568
49	0x3dac9a8c	0.08427915
50	0xbdb16381	-0.08661557
51	0x3d98f0ab	0.07467779
52	0x3dac0ddf	0.08401083
53	0xbd489d59	-0.048978183
54	0x3cefb266	0.029259872
55	0x3d67fe2a	0.056638874
56	0xbd15240a	-0.036411323
57	0xbcadfbe6	-0.021238279
58	0xbd6c491d	-0.057686914
59	0x3acc7b28	0.0015600668
60	0x3c59d6f8	0.013295881
61	0x3d9d8506	0.07691388
62	0x3db2fd73	0.08739748
63	0x3d0ad1bc	0.033891425

net.6.weight f4 [1, 64]
0	0xbe2ae511	-0.16688944
1	0xbe1ef3a4	-0.15522629
2	0x3e255d67	0.16148911
3	0xbe179099	-0.14801253
4	0xbc0cc09e	-0.008590845
5	0xbda15764	-0.078779966
6	0xbd7cd8ef	-0.06173032
7	0x3e1109e0	0.14163923
8	0xbd840168	-0.06445581
9	0xbd56d682	-0.052450664
10	0x3d6bec10	0.057598174
11	0xbc987f87	-0.018615497
12	0x3ded0702	0.11573602
13	0x3cff5ef1	0.031173201
14	0x3df31f75	0.11871234
15	0xbd87fb08	-0.06639677
16	0x3d49da9e	0.049280755
17	0x3d884345	0.06653456
18	0xbe082cb2	-0.132983
19	0xbe15fb6e	-0.14646694
20	0x3d27dda2	0.04098285
21	0x3d76c23a	0.060243823
22	0xbe0d1da1	-0.13780834
23	0xbe33243b	-0.1749429
24	0xbd7c9257	-0.061662998
25	0x3e0d78db	0.13815634
26	0x3dfbbba3	0.12291648
27	0xbe043244	-0.129098
28	0xbd97a9d8	-0.07405442
29	0x3e0dd499	0.13850631
30	0x3e0ea479	0.13929929
31	0x3c9734b5	0.01845775
32	0xbdf6a648	-0.120434344
33	0x3cced336	0.025247198
34	0xbe14dc9b	-0.1453728
35	0x3dee2f85	0.116301574
36	0xbe1d3cc4	-0.15355211
37	0xbe07f944	-0.13278681
38	0x3d48b7f8	0.04900357
39	0xbd0b55e0	-0.034017444
40	0x3d12c54d	0.035832692
41	0xbd9c8e63	-0.076443456
42	0xbe0aade5	-0.13542898
43	0x3d693c0d	0.056942035
44	0x3de797c6	0.11308245
45	0x3e09956f	0.1343591
46	0xbd50505c	-0.050857887
47	0xbdb2c0f6	-0.08728211
48	0x3d930d6c	0.071802944
49	0x3e066fcf	0.13128589
50	0x3d763872	0.060112424
51	0x3dab9c8b	0.083794676
52	0xbdb5da49	-0.08879525
53	0xbd85d692	-0.06535067
54	0xbd72053a	-0.059087016
55	0xbe11d617	-0.14241825
56	0xbdb6470a	-0.089002684
57	0x3dff3d8a	0.124629095
58	0x3e1f5215	0.15558656
59	0x3db14d58	0.0865733
60	0x3db34a07	0.08754354
61	0xbd40e9fc	-0.047098145
62	0x3df51c83	0.11968329
63	0x3d82ddb4	0.06389943
